saved_model_schema_version: 1
meta_graphs {
  meta_info_def {
    stripped_op_list {
      op {
        name: "Add"
        input_arg {
          name: "x"
          type_attr: "T"
        }
        input_arg {
          name: "y"
          type_attr: "T"
        }
        output_arg {
          name: "z"
          type_attr: "T"
        }
        attr {
          name: "T"
          type: "type"
          allowed_values {
            list {
              type: DT_HALF
              type: DT_BFLOAT16
              type: DT_FLOAT
              type: DT_DOUBLE
              type: DT_UINT8
              type: DT_INT8
              type: DT_INT16
              type: DT_INT32
              type: DT_INT64
              type: DT_COMPLEX64
              type: DT_COMPLEX128
              type: DT_STRING
            }
          }
        }
      }
      op {
        name: "AddN"
        input_arg {
          name: "inputs"
          type_attr: "T"
          number_attr: "N"
        }
        output_arg {
          name: "sum"
          type_attr: "T"
        }
        attr {
          name: "N"
          type: "int"
          has_minimum: true
          minimum: 1
        }
        attr {
          name: "T"
          type: "type"
          allowed_values {
            list {
              type: DT_FLOAT
              type: DT_DOUBLE
              type: DT_INT64
              type: DT_INT32
              type: DT_UINT8
              type: DT_UINT16
              type: DT_INT16
              type: DT_INT8
              type: DT_COMPLEX64
              type: DT_COMPLEX128
              type: DT_QINT8
              type: DT_QUINT8
              type: DT_QINT32
              type: DT_HALF
              type: DT_UINT32
              type: DT_UINT64
              type: DT_BFLOAT16
              type: DT_VARIANT
            }
          }
        }
        is_aggregate: true
        is_commutative: true
      }
      op {
        name: "ArgMax"
        input_arg {
          name: "input"
          type_attr: "T"
        }
        input_arg {
          name: "dimension"
          type_attr: "Tidx"
        }
        output_arg {
          name: "output"
          type_attr: "output_type"
        }
        attr {
          name: "T"
          type: "type"
          allowed_values {
            list {
              type: DT_FLOAT
              type: DT_DOUBLE
              type: DT_INT64
              type: DT_INT32
              type: DT_UINT8
              type: DT_UINT16
              type: DT_INT16
              type: DT_INT8
              type: DT_COMPLEX64
              type: DT_COMPLEX128
              type: DT_QINT8
              type: DT_QUINT8
              type: DT_QINT32
              type: DT_HALF
              type: DT_UINT32
              type: DT_UINT64
              type: DT_BFLOAT16
            }
          }
        }
        attr {
          name: "Tidx"
          type: "type"
          default_value {
            type: DT_INT32
          }
          allowed_values {
            list {
              type: DT_INT32
              type: DT_INT64
            }
          }
        }
        attr {
          name: "output_type"
          type: "type"
          default_value {
            type: DT_INT64
          }
          allowed_values {
            list {
              type: DT_INT32
              type: DT_INT64
            }
          }
        }
      }
      op {
        name: "Assign"
        input_arg {
          name: "ref"
          type_attr: "T"
          is_ref: true
        }
        input_arg {
          name: "value"
          type_attr: "T"
        }
        output_arg {
          name: "output_ref"
          type_attr: "T"
          is_ref: true
        }
        attr {
          name: "T"
          type: "type"
        }
        attr {
          name: "validate_shape"
          type: "bool"
          default_value {
            b: true
          }
        }
        attr {
          name: "use_locking"
          type: "bool"
          default_value {
            b: true
          }
        }
        allows_uninitialized_input: true
      }
      op {
        name: "BiasAdd"
        input_arg {
          name: "value"
          type_attr: "T"
        }
        input_arg {
          name: "bias"
          type_attr: "T"
        }
        output_arg {
          name: "output"
          type_attr: "T"
        }
        attr {
          name: "T"
          type: "type"
          allowed_values {
            list {
              type: DT_FLOAT
              type: DT_DOUBLE
              type: DT_INT64
              type: DT_INT32
              type: DT_UINT8
              type: DT_UINT16
              type: DT_INT16
              type: DT_INT8
              type: DT_COMPLEX64
              type: DT_COMPLEX128
              type: DT_QINT8
              type: DT_QUINT8
              type: DT_QINT32
              type: DT_HALF
              type: DT_UINT32
              type: DT_UINT64
              type: DT_BFLOAT16
            }
          }
        }
        attr {
          name: "data_format"
          type: "string"
          default_value {
            s: "NHWC"
          }
          allowed_values {
            list {
              s: "NHWC"
              s: "NCHW"
            }
          }
        }
      }
      op {
        name: "Bucketize"
        input_arg {
          name: "input"
          type_attr: "T"
        }
        output_arg {
          name: "output"
          type: DT_INT32
        }
        attr {
          name: "T"
          type: "type"
          allowed_values {
            list {
              type: DT_INT32
              type: DT_INT64
              type: DT_FLOAT
              type: DT_DOUBLE
            }
          }
        }
        attr {
          name: "boundaries"
          type: "list(float)"
        }
      }
      op {
        name: "Cast"
        input_arg {
          name: "x"
          type_attr: "SrcT"
        }
        output_arg {
          name: "y"
          type_attr: "DstT"
        }
        attr {
          name: "SrcT"
          type: "type"
        }
        attr {
          name: "DstT"
          type: "type"
        }
      }
      op {
        name: "ConcatV2"
        input_arg {
          name: "values"
          type_attr: "T"
          number_attr: "N"
        }
        input_arg {
          name: "axis"
          type_attr: "Tidx"
        }
        output_arg {
          name: "output"
          type_attr: "T"
        }
        attr {
          name: "N"
          type: "int"
          has_minimum: true
          minimum: 2
        }
        attr {
          name: "T"
          type: "type"
        }
        attr {
          name: "Tidx"
          type: "type"
          default_value {
            type: DT_INT32
          }
          allowed_values {
            list {
              type: DT_INT32
              type: DT_INT64
            }
          }
        }
      }
      op {
        name: "Const"
        output_arg {
          name: "output"
          type_attr: "dtype"
        }
        attr {
          name: "value"
          type: "tensor"
        }
        attr {
          name: "dtype"
          type: "type"
        }
      }
      op {
        name: "DecodeCSV"
        input_arg {
          name: "records"
          type: DT_STRING
        }
        input_arg {
          name: "record_defaults"
          type_list_attr: "OUT_TYPE"
        }
        output_arg {
          name: "output"
          type_list_attr: "OUT_TYPE"
        }
        attr {
          name: "OUT_TYPE"
          type: "list(type)"
          has_minimum: true
          minimum: 1
          allowed_values {
            list {
              type: DT_FLOAT
              type: DT_DOUBLE
              type: DT_INT32
              type: DT_INT64
              type: DT_STRING
            }
          }
        }
        attr {
          name: "field_delim"
          type: "string"
          default_value {
            s: ","
          }
        }
        attr {
          name: "use_quote_delim"
          type: "bool"
          default_value {
            b: true
          }
        }
        attr {
          name: "na_value"
          type: "string"
          default_value {
            s: ""
          }
        }
      }
      op {
        name: "Equal"
        input_arg {
          name: "x"
          type_attr: "T"
        }
        input_arg {
          name: "y"
          type_attr: "T"
        }
        output_arg {
          name: "z"
          type: DT_BOOL
        }
        attr {
          name: "T"
          type: "type"
          allowed_values {
            list {
              type: DT_HALF
              type: DT_BFLOAT16
              type: DT_FLOAT
              type: DT_DOUBLE
              type: DT_UINT8
              type: DT_INT8
              type: DT_INT16
              type: DT_INT32
              type: DT_INT64
              type: DT_COMPLEX64
              type: DT_QUINT8
              type: DT_QINT8
              type: DT_QINT32
              type: DT_STRING
              type: DT_BOOL
              type: DT_COMPLEX128
            }
          }
        }
        is_commutative: true
      }
      op {
        name: "ExpandDims"
        input_arg {
          name: "input"
          type_attr: "T"
        }
        input_arg {
          name: "dim"
          type_attr: "Tdim"
        }
        output_arg {
          name: "output"
          type_attr: "T"
        }
        attr {
          name: "T"
          type: "type"
        }
        attr {
          name: "Tdim"
          type: "type"
          default_value {
            type: DT_INT32
          }
          allowed_values {
            list {
              type: DT_INT32
              type: DT_INT64
            }
          }
        }
      }
      op {
        name: "Gather"
        input_arg {
          name: "params"
          type_attr: "Tparams"
        }
        input_arg {
          name: "indices"
          type_attr: "Tindices"
        }
        output_arg {
          name: "output"
          type_attr: "Tparams"
        }
        attr {
          name: "validate_indices"
          type: "bool"
          default_value {
            b: true
          }
        }
        attr {
          name: "Tparams"
          type: "type"
        }
        attr {
          name: "Tindices"
          type: "type"
          allowed_values {
            list {
              type: DT_INT32
              type: DT_INT64
            }
          }
        }
      }
      op {
        name: "GreaterEqual"
        input_arg {
          name: "x"
          type_attr: "T"
        }
        input_arg {
          name: "y"
          type_attr: "T"
        }
        output_arg {
          name: "z"
          type: DT_BOOL
        }
        attr {
          name: "T"
          type: "type"
          allowed_values {
            list {
              type: DT_FLOAT
              type: DT_DOUBLE
              type: DT_INT32
              type: DT_INT64
              type: DT_UINT8
              type: DT_INT16
              type: DT_INT8
              type: DT_UINT16
              type: DT_HALF
              type: DT_UINT32
              type: DT_UINT64
              type: DT_BFLOAT16
            }
          }
        }
      }
      op {
        name: "HashTableV2"
        output_arg {
          name: "table_handle"
          type: DT_RESOURCE
        }
        attr {
          name: "container"
          type: "string"
          default_value {
            s: ""
          }
        }
        attr {
          name: "shared_name"
          type: "string"
          default_value {
            s: ""
          }
        }
        attr {
          name: "use_node_name_sharing"
          type: "bool"
          default_value {
            b: false
          }
        }
        attr {
          name: "key_dtype"
          type: "type"
        }
        attr {
          name: "value_dtype"
          type: "type"
        }
        is_stateful: true
      }
      op {
        name: "HistogramSummary"
        input_arg {
          name: "tag"
          type: DT_STRING
        }
        input_arg {
          name: "values"
          type_attr: "T"
        }
        output_arg {
          name: "summary"
          type: DT_STRING
        }
        attr {
          name: "T"
          type: "type"
          default_value {
            type: DT_FLOAT
          }
          allowed_values {
            list {
              type: DT_FLOAT
              type: DT_DOUBLE
              type: DT_INT32
              type: DT_INT64
              type: DT_UINT8
              type: DT_INT16
              type: DT_INT8
              type: DT_UINT16
              type: DT_HALF
              type: DT_UINT32
              type: DT_UINT64
              type: DT_BFLOAT16
            }
          }
        }
      }
      op {
        name: "Identity"
        input_arg {
          name: "input"
          type_attr: "T"
        }
        output_arg {
          name: "output"
          type_attr: "T"
        }
        attr {
          name: "T"
          type: "type"
        }
      }
      op {
        name: "InitializeTableV2"
        input_arg {
          name: "table_handle"
          type: DT_RESOURCE
        }
        input_arg {
          name: "keys"
          type_attr: "Tkey"
        }
        input_arg {
          name: "values"
          type_attr: "Tval"
        }
        attr {
          name: "Tkey"
          type: "type"
        }
        attr {
          name: "Tval"
          type: "type"
        }
        is_stateful: true
      }
      op {
        name: "LookupTableFindV2"
        input_arg {
          name: "table_handle"
          type: DT_RESOURCE
        }
        input_arg {
          name: "keys"
          type_attr: "Tin"
        }
        input_arg {
          name: "default_value"
          type_attr: "Tout"
        }
        output_arg {
          name: "values"
          type_attr: "Tout"
        }
        attr {
          name: "Tin"
          type: "type"
        }
        attr {
          name: "Tout"
          type: "type"
        }
        is_stateful: true
      }
      op {
        name: "MatMul"
        input_arg {
          name: "a"
          type_attr: "T"
        }
        input_arg {
          name: "b"
          type_attr: "T"
        }
        output_arg {
          name: "product"
          type_attr: "T"
        }
        attr {
          name: "transpose_a"
          type: "bool"
          default_value {
            b: false
          }
        }
        attr {
          name: "transpose_b"
          type: "bool"
          default_value {
            b: false
          }
        }
        attr {
          name: "T"
          type: "type"
          allowed_values {
            list {
              type: DT_HALF
              type: DT_BFLOAT16
              type: DT_FLOAT
              type: DT_DOUBLE
              type: DT_INT32
              type: DT_COMPLEX64
              type: DT_COMPLEX128
            }
          }
        }
      }
      op {
        name: "Mean"
        input_arg {
          name: "input"
          type_attr: "T"
        }
        input_arg {
          name: "reduction_indices"
          type_attr: "Tidx"
        }
        output_arg {
          name: "output"
          type_attr: "T"
        }
        attr {
          name: "keep_dims"
          type: "bool"
          default_value {
            b: false
          }
        }
        attr {
          name: "T"
          type: "type"
          allowed_values {
            list {
              type: DT_FLOAT
              type: DT_DOUBLE
              type: DT_INT64
              type: DT_INT32
              type: DT_UINT8
              type: DT_UINT16
              type: DT_INT16
              type: DT_INT8
              type: DT_COMPLEX64
              type: DT_COMPLEX128
              type: DT_QINT8
              type: DT_QUINT8
              type: DT_QINT32
              type: DT_HALF
              type: DT_UINT32
              type: DT_UINT64
              type: DT_BFLOAT16
            }
          }
        }
        attr {
          name: "Tidx"
          type: "type"
          default_value {
            type: DT_INT32
          }
          allowed_values {
            list {
              type: DT_INT32
              type: DT_INT64
            }
          }
        }
      }
      op {
        name: "MergeV2Checkpoints"
        input_arg {
          name: "checkpoint_prefixes"
          type: DT_STRING
        }
        input_arg {
          name: "destination_prefix"
          type: DT_STRING
        }
        attr {
          name: "delete_old_dirs"
          type: "bool"
          default_value {
            b: true
          }
        }
        is_stateful: true
      }
      op {
        name: "Mul"
        input_arg {
          name: "x"
          type_attr: "T"
        }
        input_arg {
          name: "y"
          type_attr: "T"
        }
        output_arg {
          name: "z"
          type_attr: "T"
        }
        attr {
          name: "T"
          type: "type"
          allowed_values {
            list {
              type: DT_HALF
              type: DT_BFLOAT16
              type: DT_FLOAT
              type: DT_DOUBLE
              type: DT_UINT8
              type: DT_INT8
              type: DT_UINT16
              type: DT_INT16
              type: DT_INT32
              type: DT_INT64
              type: DT_COMPLEX64
              type: DT_COMPLEX128
            }
          }
        }
        is_commutative: true
      }
      op {
        name: "NoOp"
      }
      op {
        name: "Pack"
        input_arg {
          name: "values"
          type_attr: "T"
          number_attr: "N"
        }
        output_arg {
          name: "output"
          type_attr: "T"
        }
        attr {
          name: "N"
          type: "int"
          has_minimum: true
          minimum: 1
        }
        attr {
          name: "T"
          type: "type"
        }
        attr {
          name: "axis"
          type: "int"
          default_value {
            i: 0
          }
        }
      }
      op {
        name: "Placeholder"
        output_arg {
          name: "output"
          type_attr: "dtype"
        }
        attr {
          name: "dtype"
          type: "type"
        }
        attr {
          name: "shape"
          type: "shape"
          default_value {
            shape {
              unknown_rank: true
            }
          }
        }
      }
      op {
        name: "Prod"
        input_arg {
          name: "input"
          type_attr: "T"
        }
        input_arg {
          name: "reduction_indices"
          type_attr: "Tidx"
        }
        output_arg {
          name: "output"
          type_attr: "T"
        }
        attr {
          name: "keep_dims"
          type: "bool"
          default_value {
            b: false
          }
        }
        attr {
          name: "T"
          type: "type"
          allowed_values {
            list {
              type: DT_FLOAT
              type: DT_DOUBLE
              type: DT_INT64
              type: DT_INT32
              type: DT_UINT8
              type: DT_UINT16
              type: DT_INT16
              type: DT_INT8
              type: DT_COMPLEX64
              type: DT_COMPLEX128
              type: DT_QINT8
              type: DT_QUINT8
              type: DT_QINT32
              type: DT_HALF
              type: DT_UINT32
              type: DT_UINT64
              type: DT_BFLOAT16
            }
          }
        }
        attr {
          name: "Tidx"
          type: "type"
          default_value {
            type: DT_INT32
          }
          allowed_values {
            list {
              type: DT_INT32
              type: DT_INT64
            }
          }
        }
      }
      op {
        name: "RandomUniform"
        input_arg {
          name: "shape"
          type_attr: "T"
        }
        output_arg {
          name: "output"
          type_attr: "dtype"
        }
        attr {
          name: "seed"
          type: "int"
          default_value {
            i: 0
          }
        }
        attr {
          name: "seed2"
          type: "int"
          default_value {
            i: 0
          }
        }
        attr {
          name: "dtype"
          type: "type"
          allowed_values {
            list {
              type: DT_HALF
              type: DT_BFLOAT16
              type: DT_FLOAT
              type: DT_DOUBLE
            }
          }
        }
        attr {
          name: "T"
          type: "type"
          allowed_values {
            list {
              type: DT_INT32
              type: DT_INT64
            }
          }
        }
        is_stateful: true
      }
      op {
        name: "Range"
        input_arg {
          name: "start"
          type_attr: "Tidx"
        }
        input_arg {
          name: "limit"
          type_attr: "Tidx"
        }
        input_arg {
          name: "delta"
          type_attr: "Tidx"
        }
        output_arg {
          name: "output"
          type_attr: "Tidx"
        }
        attr {
          name: "Tidx"
          type: "type"
          default_value {
            type: DT_INT32
          }
          allowed_values {
            list {
              type: DT_BFLOAT16
              type: DT_FLOAT
              type: DT_DOUBLE
              type: DT_INT32
              type: DT_INT64
            }
          }
        }
      }
      op {
        name: "Rank"
        input_arg {
          name: "input"
          type_attr: "T"
        }
        output_arg {
          name: "output"
          type: DT_INT32
        }
        attr {
          name: "T"
          type: "type"
        }
      }
      op {
        name: "Relu"
        input_arg {
          name: "features"
          type_attr: "T"
        }
        output_arg {
          name: "activations"
          type_attr: "T"
        }
        attr {
          name: "T"
          type: "type"
          allowed_values {
            list {
              type: DT_FLOAT
              type: DT_DOUBLE
              type: DT_INT32
              type: DT_INT64
              type: DT_UINT8
              type: DT_INT16
              type: DT_INT8
              type: DT_UINT16
              type: DT_HALF
              type: DT_UINT32
              type: DT_UINT64
              type: DT_BFLOAT16
            }
          }
        }
      }
      op {
        name: "Reshape"
        input_arg {
          name: "tensor"
          type_attr: "T"
        }
        input_arg {
          name: "shape"
          type_attr: "Tshape"
        }
        output_arg {
          name: "output"
          type_attr: "T"
        }
        attr {
          name: "T"
          type: "type"
        }
        attr {
          name: "Tshape"
          type: "type"
          default_value {
            type: DT_INT32
          }
          allowed_values {
            list {
              type: DT_INT32
              type: DT_INT64
            }
          }
        }
      }
      op {
        name: "RestoreV2"
        input_arg {
          name: "prefix"
          type: DT_STRING
        }
        input_arg {
          name: "tensor_names"
          type: DT_STRING
        }
        input_arg {
          name: "shape_and_slices"
          type: DT_STRING
        }
        output_arg {
          name: "tensors"
          type_list_attr: "dtypes"
        }
        attr {
          name: "dtypes"
          type: "list(type)"
          has_minimum: true
          minimum: 1
        }
        is_stateful: true
      }
      op {
        name: "SaveV2"
        input_arg {
          name: "prefix"
          type: DT_STRING
        }
        input_arg {
          name: "tensor_names"
          type: DT_STRING
        }
        input_arg {
          name: "shape_and_slices"
          type: DT_STRING
        }
        input_arg {
          name: "tensors"
          type_list_attr: "dtypes"
        }
        attr {
          name: "dtypes"
          type: "list(type)"
          has_minimum: true
          minimum: 1
        }
        is_stateful: true
      }
      op {
        name: "ScalarSummary"
        input_arg {
          name: "tags"
          type: DT_STRING
        }
        input_arg {
          name: "values"
          type_attr: "T"
        }
        output_arg {
          name: "summary"
          type: DT_STRING
        }
        attr {
          name: "T"
          type: "type"
          allowed_values {
            list {
              type: DT_FLOAT
              type: DT_DOUBLE
              type: DT_INT32
              type: DT_INT64
              type: DT_UINT8
              type: DT_INT16
              type: DT_INT8
              type: DT_UINT16
              type: DT_HALF
              type: DT_UINT32
              type: DT_UINT64
              type: DT_BFLOAT16
            }
          }
        }
      }
      op {
        name: "Select"
        input_arg {
          name: "condition"
          type: DT_BOOL
        }
        input_arg {
          name: "t"
          type_attr: "T"
        }
        input_arg {
          name: "e"
          type_attr: "T"
        }
        output_arg {
          name: "output"
          type_attr: "T"
        }
        attr {
          name: "T"
          type: "type"
        }
      }
      op {
        name: "Shape"
        input_arg {
          name: "input"
          type_attr: "T"
        }
        output_arg {
          name: "output"
          type_attr: "out_type"
        }
        attr {
          name: "T"
          type: "type"
        }
        attr {
          name: "out_type"
          type: "type"
          default_value {
            type: DT_INT32
          }
          allowed_values {
            list {
              type: DT_INT32
              type: DT_INT64
            }
          }
        }
      }
      op {
        name: "ShardedFilename"
        input_arg {
          name: "basename"
          type: DT_STRING
        }
        input_arg {
          name: "shard"
          type: DT_INT32
        }
        input_arg {
          name: "num_shards"
          type: DT_INT32
        }
        output_arg {
          name: "filename"
          type: DT_STRING
        }
      }
      op {
        name: "Sigmoid"
        input_arg {
          name: "x"
          type_attr: "T"
        }
        output_arg {
          name: "y"
          type_attr: "T"
        }
        attr {
          name: "T"
          type: "type"
          allowed_values {
            list {
              type: DT_HALF
              type: DT_BFLOAT16
              type: DT_FLOAT
              type: DT_DOUBLE
              type: DT_COMPLEX64
              type: DT_COMPLEX128
            }
          }
        }
      }
      op {
        name: "Slice"
        input_arg {
          name: "input"
          type_attr: "T"
        }
        input_arg {
          name: "begin"
          type_attr: "Index"
        }
        input_arg {
          name: "size"
          type_attr: "Index"
        }
        output_arg {
          name: "output"
          type_attr: "T"
        }
        attr {
          name: "T"
          type: "type"
        }
        attr {
          name: "Index"
          type: "type"
          allowed_values {
            list {
              type: DT_INT32
              type: DT_INT64
            }
          }
        }
      }
      op {
        name: "Softmax"
        input_arg {
          name: "logits"
          type_attr: "T"
        }
        output_arg {
          name: "softmax"
          type_attr: "T"
        }
        attr {
          name: "T"
          type: "type"
          allowed_values {
            list {
              type: DT_HALF
              type: DT_BFLOAT16
              type: DT_FLOAT
              type: DT_DOUBLE
            }
          }
        }
      }
      op {
        name: "SparseCross"
        input_arg {
          name: "indices"
          type: DT_INT64
          number_attr: "N"
        }
        input_arg {
          name: "values"
          type_list_attr: "sparse_types"
        }
        input_arg {
          name: "shapes"
          type: DT_INT64
          number_attr: "N"
        }
        input_arg {
          name: "dense_inputs"
          type_list_attr: "dense_types"
        }
        output_arg {
          name: "output_indices"
          type: DT_INT64
        }
        output_arg {
          name: "output_values"
          type_attr: "out_type"
        }
        output_arg {
          name: "output_shape"
          type: DT_INT64
        }
        attr {
          name: "N"
          type: "int"
          has_minimum: true
        }
        attr {
          name: "hashed_output"
          type: "bool"
        }
        attr {
          name: "num_buckets"
          type: "int"
          has_minimum: true
        }
        attr {
          name: "hash_key"
          type: "int"
        }
        attr {
          name: "sparse_types"
          type: "list(type)"
          has_minimum: true
          allowed_values {
            list {
              type: DT_INT64
              type: DT_STRING
            }
          }
        }
        attr {
          name: "dense_types"
          type: "list(type)"
          has_minimum: true
          allowed_values {
            list {
              type: DT_INT64
              type: DT_STRING
            }
          }
        }
        attr {
          name: "out_type"
          type: "type"
          allowed_values {
            list {
              type: DT_INT64
              type: DT_STRING
            }
          }
        }
        attr {
          name: "internal_type"
          type: "type"
          allowed_values {
            list {
              type: DT_INT64
              type: DT_STRING
            }
          }
        }
      }
      op {
        name: "SparseFillEmptyRows"
        input_arg {
          name: "indices"
          type: DT_INT64
        }
        input_arg {
          name: "values"
          type_attr: "T"
        }
        input_arg {
          name: "dense_shape"
          type: DT_INT64
        }
        input_arg {
          name: "default_value"
          type_attr: "T"
        }
        output_arg {
          name: "output_indices"
          type: DT_INT64
        }
        output_arg {
          name: "output_values"
          type_attr: "T"
        }
        output_arg {
          name: "empty_row_indicator"
          type: DT_BOOL
        }
        output_arg {
          name: "reverse_index_map"
          type: DT_INT64
        }
        attr {
          name: "T"
          type: "type"
        }
      }
      op {
        name: "SparseReshape"
        input_arg {
          name: "input_indices"
          type: DT_INT64
        }
        input_arg {
          name: "input_shape"
          type: DT_INT64
        }
        input_arg {
          name: "new_shape"
          type: DT_INT64
        }
        output_arg {
          name: "output_indices"
          type: DT_INT64
        }
        output_arg {
          name: "output_shape"
          type: DT_INT64
        }
      }
      op {
        name: "SparseSegmentSum"
        input_arg {
          name: "data"
          type_attr: "T"
        }
        input_arg {
          name: "indices"
          type_attr: "Tidx"
        }
        input_arg {
          name: "segment_ids"
          type: DT_INT32
        }
        output_arg {
          name: "output"
          type_attr: "T"
        }
        attr {
          name: "T"
          type: "type"
          allowed_values {
            list {
              type: DT_FLOAT
              type: DT_DOUBLE
              type: DT_INT32
              type: DT_INT64
              type: DT_UINT8
              type: DT_INT16
              type: DT_INT8
              type: DT_UINT16
              type: DT_HALF
              type: DT_UINT32
              type: DT_UINT64
              type: DT_BFLOAT16
            }
          }
        }
        attr {
          name: "Tidx"
          type: "type"
          default_value {
            type: DT_INT32
          }
          allowed_values {
            list {
              type: DT_INT32
              type: DT_INT64
            }
          }
        }
      }
      op {
        name: "StridedSlice"
        input_arg {
          name: "input"
          type_attr: "T"
        }
        input_arg {
          name: "begin"
          type_attr: "Index"
        }
        input_arg {
          name: "end"
          type_attr: "Index"
        }
        input_arg {
          name: "strides"
          type_attr: "Index"
        }
        output_arg {
          name: "output"
          type_attr: "T"
        }
        attr {
          name: "T"
          type: "type"
        }
        attr {
          name: "Index"
          type: "type"
          allowed_values {
            list {
              type: DT_INT32
              type: DT_INT64
            }
          }
        }
        attr {
          name: "begin_mask"
          type: "int"
          default_value {
            i: 0
          }
        }
        attr {
          name: "end_mask"
          type: "int"
          default_value {
            i: 0
          }
        }
        attr {
          name: "ellipsis_mask"
          type: "int"
          default_value {
            i: 0
          }
        }
        attr {
          name: "new_axis_mask"
          type: "int"
          default_value {
            i: 0
          }
        }
        attr {
          name: "shrink_axis_mask"
          type: "int"
          default_value {
            i: 0
          }
        }
      }
      op {
        name: "StringJoin"
        input_arg {
          name: "inputs"
          type: DT_STRING
          number_attr: "N"
        }
        output_arg {
          name: "output"
          type: DT_STRING
        }
        attr {
          name: "N"
          type: "int"
          has_minimum: true
          minimum: 1
        }
        attr {
          name: "separator"
          type: "string"
          default_value {
            s: ""
          }
        }
      }
      op {
        name: "Sub"
        input_arg {
          name: "x"
          type_attr: "T"
        }
        input_arg {
          name: "y"
          type_attr: "T"
        }
        output_arg {
          name: "z"
          type_attr: "T"
        }
        attr {
          name: "T"
          type: "type"
          allowed_values {
            list {
              type: DT_HALF
              type: DT_BFLOAT16
              type: DT_FLOAT
              type: DT_DOUBLE
              type: DT_UINT8
              type: DT_INT8
              type: DT_UINT16
              type: DT_INT16
              type: DT_INT32
              type: DT_INT64
              type: DT_COMPLEX64
              type: DT_COMPLEX128
            }
          }
        }
      }
      op {
        name: "Tile"
        input_arg {
          name: "input"
          type_attr: "T"
        }
        input_arg {
          name: "multiples"
          type_attr: "Tmultiples"
        }
        output_arg {
          name: "output"
          type_attr: "T"
        }
        attr {
          name: "T"
          type: "type"
        }
        attr {
          name: "Tmultiples"
          type: "type"
          default_value {
            type: DT_INT32
          }
          allowed_values {
            list {
              type: DT_INT32
              type: DT_INT64
            }
          }
        }
      }
      op {
        name: "Transpose"
        input_arg {
          name: "x"
          type_attr: "T"
        }
        input_arg {
          name: "perm"
          type_attr: "Tperm"
        }
        output_arg {
          name: "y"
          type_attr: "T"
        }
        attr {
          name: "T"
          type: "type"
        }
        attr {
          name: "Tperm"
          type: "type"
          default_value {
            type: DT_INT32
          }
          allowed_values {
            list {
              type: DT_INT32
              type: DT_INT64
            }
          }
        }
      }
      op {
        name: "Unique"
        input_arg {
          name: "x"
          type_attr: "T"
        }
        output_arg {
          name: "y"
          type_attr: "T"
        }
        output_arg {
          name: "idx"
          type_attr: "out_idx"
        }
        attr {
          name: "T"
          type: "type"
        }
        attr {
          name: "out_idx"
          type: "type"
          default_value {
            type: DT_INT32
          }
          allowed_values {
            list {
              type: DT_INT32
              type: DT_INT64
            }
          }
        }
      }
      op {
        name: "VariableV2"
        output_arg {
          name: "ref"
          type_attr: "dtype"
          is_ref: true
        }
        attr {
          name: "shape"
          type: "shape"
        }
        attr {
          name: "dtype"
          type: "type"
        }
        attr {
          name: "container"
          type: "string"
          default_value {
            s: ""
          }
        }
        attr {
          name: "shared_name"
          type: "string"
          default_value {
            s: ""
          }
        }
        is_stateful: true
      }
      op {
        name: "Where"
        input_arg {
          name: "input"
          type_attr: "T"
        }
        output_arg {
          name: "index"
          type: DT_INT64
        }
        attr {
          name: "T"
          type: "type"
          default_value {
            type: DT_BOOL
          }
          allowed_values {
            list {
              type: DT_FLOAT
              type: DT_DOUBLE
              type: DT_INT64
              type: DT_INT32
              type: DT_UINT8
              type: DT_UINT16
              type: DT_INT16
              type: DT_INT8
              type: DT_COMPLEX64
              type: DT_COMPLEX128
              type: DT_QINT8
              type: DT_QUINT8
              type: DT_QINT32
              type: DT_HALF
              type: DT_UINT32
              type: DT_UINT64
              type: DT_BFLOAT16
              type: DT_BOOL
            }
          }
        }
      }
      op {
        name: "ZerosLike"
        input_arg {
          name: "x"
          type_attr: "T"
        }
        output_arg {
          name: "y"
          type_attr: "T"
        }
        attr {
          name: "T"
          type: "type"
        }
      }
    }
    tags: "serve"
    tensorflow_version: "1.5.0"
    tensorflow_git_version: "v1.5.0-0-g37aa430d84"
  }
  graph_def {
    node {
      name: "global_step/Initializer/zeros"
      op: "Const"
      attr {
        key: "_class"
        value {
          list {
            s: "loc:@global_step"
          }
        }
      }
      attr {
        key: "_output_shapes"
        value {
          list {
            shape {
            }
          }
        }
      }
      attr {
        key: "dtype"
        value {
          type: DT_INT64
        }
      }
      attr {
        key: "value"
        value {
          tensor {
            dtype: DT_INT64
            tensor_shape {
            }
            int64_val: 0
          }
        }
      }
    }
    node {
      name: "global_step"
      op: "VariableV2"
      attr {
        key: "_class"
        value {
          list {
            s: "loc:@global_step"
          }
        }
      }
      attr {
        key: "_output_shapes"
        value {
          list {
            shape {
            }
          }
        }
      }
      attr {
        key: "container"
        value {
          s: ""
        }
      }
      attr {
        key: "dtype"
        value {
          type: DT_INT64
        }
      }
      attr {
        key: "shape"
        value {
          shape {
          }
        }
      }
      attr {
        key: "shared_name"
        value {
          s: ""
        }
      }
    }
    node {
      name: "global_step/Assign"
      op: "Assign"
      input: "global_step"
      input: "global_step/Initializer/zeros"
      attr {
        key: "T"
        value {
          type: DT_INT64
        }
      }
      attr {
        key: "_class"
        value {
          list {
            s: "loc:@global_step"
          }
        }
      }
      attr {
        key: "_output_shapes"
        value {
          list {
            shape {
            }
          }
        }
      }
      attr {
        key: "use_locking"
        value {
          b: true
        }
      }
      attr {
        key: "validate_shape"
        value {
          b: true
        }
      }
    }
    node {
      name: "global_step/read"
      op: "Identity"
      input: "global_step"
      attr {
        key: "T"
        value {
          type: DT_INT64
        }
      }
      attr {
        key: "_class"
        value {
          list {
            s: "loc:@global_step"
          }
        }
      }
      attr {
        key: "_output_shapes"
        value {
          list {
            shape {
            }
          }
        }
      }
    }
    node {
      name: "csv_rows"
      op: "Placeholder"
      attr {
        key: "_output_shapes"
        value {
          list {
            shape {
              dim {
                size: -1
              }
            }
          }
        }
      }
      attr {
        key: "dtype"
        value {
          type: DT_STRING
        }
      }
      attr {
        key: "shape"
        value {
          shape {
            dim {
              size: -1
            }
          }
        }
      }
    }
    node {
      name: "ExpandDims/dim"
      op: "Const"
      attr {
        key: "_output_shapes"
        value {
          list {
            shape {
            }
          }
        }
      }
      attr {
        key: "dtype"
        value {
          type: DT_INT32
        }
      }
      attr {
        key: "value"
        value {
          tensor {
            dtype: DT_INT32
            tensor_shape {
            }
            int_val: -1
          }
        }
      }
    }
    node {
      name: "ExpandDims"
      op: "ExpandDims"
      input: "csv_rows"
      input: "ExpandDims/dim"
      attr {
        key: "T"
        value {
          type: DT_STRING
        }
      }
      attr {
        key: "Tdim"
        value {
          type: DT_INT32
        }
      }
      attr {
        key: "_output_shapes"
        value {
          list {
            shape {
              dim {
                size: -1
              }
              dim {
                size: 1
              }
            }
          }
        }
      }
    }
    node {
      name: "DecodeCSV/record_defaults_0"
      op: "Const"
      attr {
        key: "_output_shapes"
        value {
          list {
            shape {
              dim {
                size: 1
              }
            }
          }
        }
      }
      attr {
        key: "dtype"
        value {
          type: DT_FLOAT
        }
      }
      attr {
        key: "value"
        value {
          tensor {
            dtype: DT_FLOAT
            tensor_shape {
              dim {
                size: 1
              }
            }
            float_val: 0.0
          }
        }
      }
    }
    node {
      name: "DecodeCSV/record_defaults_1"
      op: "Const"
      attr {
        key: "_output_shapes"
        value {
          list {
            shape {
              dim {
                size: 1
              }
            }
          }
        }
      }
      attr {
        key: "dtype"
        value {
          type: DT_FLOAT
        }
      }
      attr {
        key: "value"
        value {
          tensor {
            dtype: DT_FLOAT
            tensor_shape {
              dim {
                size: 1
              }
            }
            float_val: 0.0
          }
        }
      }
    }
    node {
      name: "DecodeCSV/record_defaults_2"
      op: "Const"
      attr {
        key: "_output_shapes"
        value {
          list {
            shape {
              dim {
                size: 1
              }
            }
          }
        }
      }
      attr {
        key: "dtype"
        value {
          type: DT_FLOAT
        }
      }
      attr {
        key: "value"
        value {
          tensor {
            dtype: DT_FLOAT
            tensor_shape {
              dim {
                size: 1
              }
            }
            float_val: 0.0
          }
        }
      }
    }
    node {
      name: "DecodeCSV/record_defaults_3"
      op: "Const"
      attr {
        key: "_output_shapes"
        value {
          list {
            shape {
              dim {
                size: 1
              }
            }
          }
        }
      }
      attr {
        key: "dtype"
        value {
          type: DT_FLOAT
        }
      }
      attr {
        key: "value"
        value {
          tensor {
            dtype: DT_FLOAT
            tensor_shape {
              dim {
                size: 1
              }
            }
            float_val: 0.0
          }
        }
      }
    }
    node {
      name: "DecodeCSV/record_defaults_4"
      op: "Const"
      attr {
        key: "_output_shapes"
        value {
          list {
            shape {
              dim {
                size: 1
              }
            }
          }
        }
      }
      attr {
        key: "dtype"
        value {
          type: DT_FLOAT
        }
      }
      attr {
        key: "value"
        value {
          tensor {
            dtype: DT_FLOAT
            tensor_shape {
              dim {
                size: 1
              }
            }
            float_val: 0.0
          }
        }
      }
    }
    node {
      name: "DecodeCSV/record_defaults_5"
      op: "Const"
      attr {
        key: "_output_shapes"
        value {
          list {
            shape {
              dim {
                size: 1
              }
            }
          }
        }
      }
      attr {
        key: "dtype"
        value {
          type: DT_FLOAT
        }
      }
      attr {
        key: "value"
        value {
          tensor {
            dtype: DT_FLOAT
            tensor_shape {
              dim {
                size: 1
              }
            }
            float_val: 0.0
          }
        }
      }
    }
    node {
      name: "DecodeCSV/record_defaults_6"
      op: "Const"
      attr {
        key: "_output_shapes"
        value {
          list {
            shape {
              dim {
                size: 1
              }
            }
          }
        }
      }
      attr {
        key: "dtype"
        value {
          type: DT_FLOAT
        }
      }
      attr {
        key: "value"
        value {
          tensor {
            dtype: DT_FLOAT
            tensor_shape {
              dim {
                size: 1
              }
            }
            float_val: 0.0
          }
        }
      }
    }
    node {
      name: "DecodeCSV/record_defaults_7"
      op: "Const"
      attr {
        key: "_output_shapes"
        value {
          list {
            shape {
              dim {
                size: 1
              }
            }
          }
        }
      }
      attr {
        key: "dtype"
        value {
          type: DT_FLOAT
        }
      }
      attr {
        key: "value"
        value {
          tensor {
            dtype: DT_FLOAT
            tensor_shape {
              dim {
                size: 1
              }
            }
            float_val: 0.0
          }
        }
      }
    }
    node {
      name: "DecodeCSV/record_defaults_8"
      op: "Const"
      attr {
        key: "_output_shapes"
        value {
          list {
            shape {
              dim {
                size: 1
              }
            }
          }
        }
      }
      attr {
        key: "dtype"
        value {
          type: DT_FLOAT
        }
      }
      attr {
        key: "value"
        value {
          tensor {
            dtype: DT_FLOAT
            tensor_shape {
              dim {
                size: 1
              }
            }
            float_val: 0.0
          }
        }
      }
    }
    node {
      name: "DecodeCSV/record_defaults_9"
      op: "Const"
      attr {
        key: "_output_shapes"
        value {
          list {
            shape {
              dim {
                size: 1
              }
            }
          }
        }
      }
      attr {
        key: "dtype"
        value {
          type: DT_FLOAT
        }
      }
      attr {
        key: "value"
        value {
          tensor {
            dtype: DT_FLOAT
            tensor_shape {
              dim {
                size: 1
              }
            }
            float_val: 0.0
          }
        }
      }
    }
    node {
      name: "DecodeCSV/record_defaults_10"
      op: "Const"
      attr {
        key: "_output_shapes"
        value {
          list {
            shape {
              dim {
                size: 1
              }
            }
          }
        }
      }
      attr {
        key: "dtype"
        value {
          type: DT_FLOAT
        }
      }
      attr {
        key: "value"
        value {
          tensor {
            dtype: DT_FLOAT
            tensor_shape {
              dim {
                size: 1
              }
            }
            float_val: 0.0
          }
        }
      }
    }
    node {
      name: "DecodeCSV/record_defaults_11"
      op: "Const"
      attr {
        key: "_output_shapes"
        value {
          list {
            shape {
              dim {
                size: 1
              }
            }
          }
        }
      }
      attr {
        key: "dtype"
        value {
          type: DT_FLOAT
        }
      }
      attr {
        key: "value"
        value {
          tensor {
            dtype: DT_FLOAT
            tensor_shape {
              dim {
                size: 1
              }
            }
            float_val: 0.0
          }
        }
      }
    }
    node {
      name: "DecodeCSV/record_defaults_12"
      op: "Const"
      attr {
        key: "_output_shapes"
        value {
          list {
            shape {
              dim {
                size: 1
              }
            }
          }
        }
      }
      attr {
        key: "dtype"
        value {
          type: DT_FLOAT
        }
      }
      attr {
        key: "value"
        value {
          tensor {
            dtype: DT_FLOAT
            tensor_shape {
              dim {
                size: 1
              }
            }
            float_val: 0.0
          }
        }
      }
    }
    node {
      name: "DecodeCSV/record_defaults_13"
      op: "Const"
      attr {
        key: "_output_shapes"
        value {
          list {
            shape {
              dim {
                size: 1
              }
            }
          }
        }
      }
      attr {
        key: "dtype"
        value {
          type: DT_FLOAT
        }
      }
      attr {
        key: "value"
        value {
          tensor {
            dtype: DT_FLOAT
            tensor_shape {
              dim {
                size: 1
              }
            }
            float_val: 0.0
          }
        }
      }
    }
    node {
      name: "DecodeCSV/record_defaults_14"
      op: "Const"
      attr {
        key: "_output_shapes"
        value {
          list {
            shape {
              dim {
                size: 1
              }
            }
          }
        }
      }
      attr {
        key: "dtype"
        value {
          type: DT_FLOAT
        }
      }
      attr {
        key: "value"
        value {
          tensor {
            dtype: DT_FLOAT
            tensor_shape {
              dim {
                size: 1
              }
            }
            float_val: 0.0
          }
        }
      }
    }
    node {
      name: "DecodeCSV/record_defaults_15"
      op: "Const"
      attr {
        key: "_output_shapes"
        value {
          list {
            shape {
              dim {
                size: 1
              }
            }
          }
        }
      }
      attr {
        key: "dtype"
        value {
          type: DT_FLOAT
        }
      }
      attr {
        key: "value"
        value {
          tensor {
            dtype: DT_FLOAT
            tensor_shape {
              dim {
                size: 1
              }
            }
            float_val: 0.0
          }
        }
      }
    }
    node {
      name: "DecodeCSV"
      op: "DecodeCSV"
      input: "ExpandDims"
      input: "DecodeCSV/record_defaults_0"
      input: "DecodeCSV/record_defaults_1"
      input: "DecodeCSV/record_defaults_2"
      input: "DecodeCSV/record_defaults_3"
      input: "DecodeCSV/record_defaults_4"
      input: "DecodeCSV/record_defaults_5"
      input: "DecodeCSV/record_defaults_6"
      input: "DecodeCSV/record_defaults_7"
      input: "DecodeCSV/record_defaults_8"
      input: "DecodeCSV/record_defaults_9"
      input: "DecodeCSV/record_defaults_10"
      input: "DecodeCSV/record_defaults_11"
      input: "DecodeCSV/record_defaults_12"
      input: "DecodeCSV/record_defaults_13"
      input: "DecodeCSV/record_defaults_14"
      input: "DecodeCSV/record_defaults_15"
      attr {
        key: "OUT_TYPE"
        value {
          list {
            type: DT_FLOAT
            type: DT_FLOAT
            type: DT_FLOAT
            type: DT_FLOAT
            type: DT_FLOAT
            type: DT_FLOAT
            type: DT_FLOAT
            type: DT_FLOAT
            type: DT_FLOAT
            type: DT_FLOAT
            type: DT_FLOAT
            type: DT_FLOAT
            type: DT_FLOAT
            type: DT_FLOAT
            type: DT_FLOAT
            type: DT_FLOAT
          }
        }
      }
      attr {
        key: "_output_shapes"
        value {
          list {
            shape {
              dim {
                size: -1
              }
              dim {
                size: 1
              }
            }
            shape {
              dim {
                size: -1
              }
              dim {
                size: 1
              }
            }
            shape {
              dim {
                size: -1
              }
              dim {
                size: 1
              }
            }
            shape {
              dim {
                size: -1
              }
              dim {
                size: 1
              }
            }
            shape {
              dim {
                size: -1
              }
              dim {
                size: 1
              }
            }
            shape {
              dim {
                size: -1
              }
              dim {
                size: 1
              }
            }
            shape {
              dim {
                size: -1
              }
              dim {
                size: 1
              }
            }
            shape {
              dim {
                size: -1
              }
              dim {
                size: 1
              }
            }
            shape {
              dim {
                size: -1
              }
              dim {
                size: 1
              }
            }
            shape {
              dim {
                size: -1
              }
              dim {
                size: 1
              }
            }
            shape {
              dim {
                size: -1
              }
              dim {
                size: 1
              }
            }
            shape {
              dim {
                size: -1
              }
              dim {
                size: 1
              }
            }
            shape {
              dim {
                size: -1
              }
              dim {
                size: 1
              }
            }
            shape {
              dim {
                size: -1
              }
              dim {
                size: 1
              }
            }
            shape {
              dim {
                size: -1
              }
              dim {
                size: 1
              }
            }
            shape {
              dim {
                size: -1
              }
              dim {
                size: 1
              }
            }
          }
        }
      }
      attr {
        key: "field_delim"
        value {
          s: ","
        }
      }
      attr {
        key: "na_value"
        value {
          s: ""
        }
      }
      attr {
        key: "use_quote_delim"
        value {
          b: true
        }
      }
    }
    node {
      name: "dnn/input_from_feature_columns/input_layer/aord_m0/Shape"
      op: "Shape"
      input: "DecodeCSV:14"
      attr {
        key: "T"
        value {
          type: DT_FLOAT
        }
      }
      attr {
        key: "_output_shapes"
        value {
          list {
            shape {
              dim {
                size: 2
              }
            }
          }
        }
      }
      attr {
        key: "out_type"
        value {
          type: DT_INT32
        }
      }
    }
    node {
      name: "dnn/input_from_feature_columns/input_layer/aord_m0/strided_slice/stack"
      op: "Const"
      attr {
        key: "_output_shapes"
        value {
          list {
            shape {
              dim {
                size: 1
              }
            }
          }
        }
      }
      attr {
        key: "dtype"
        value {
          type: DT_INT32
        }
      }
      attr {
        key: "value"
        value {
          tensor {
            dtype: DT_INT32
            tensor_shape {
              dim {
                size: 1
              }
            }
            int_val: 0
          }
        }
      }
    }
    node {
      name: "dnn/input_from_feature_columns/input_layer/aord_m0/strided_slice/stack_1"
      op: "Const"
      attr {
        key: "_output_shapes"
        value {
          list {
            shape {
              dim {
                size: 1
              }
            }
          }
        }
      }
      attr {
        key: "dtype"
        value {
          type: DT_INT32
        }
      }
      attr {
        key: "value"
        value {
          tensor {
            dtype: DT_INT32
            tensor_shape {
              dim {
                size: 1
              }
            }
            int_val: 1
          }
        }
      }
    }
    node {
      name: "dnn/input_from_feature_columns/input_layer/aord_m0/strided_slice/stack_2"
      op: "Const"
      attr {
        key: "_output_shapes"
        value {
          list {
            shape {
              dim {
                size: 1
              }
            }
          }
        }
      }
      attr {
        key: "dtype"
        value {
          type: DT_INT32
        }
      }
      attr {
        key: "value"
        value {
          tensor {
            dtype: DT_INT32
            tensor_shape {
              dim {
                size: 1
              }
            }
            int_val: 1
          }
        }
      }
    }
    node {
      name: "dnn/input_from_feature_columns/input_layer/aord_m0/strided_slice"
      op: "StridedSlice"
      input: "dnn/input_from_feature_columns/input_layer/aord_m0/Shape"
      input: "dnn/input_from_feature_columns/input_layer/aord_m0/strided_slice/stack"
      input: "dnn/input_from_feature_columns/input_layer/aord_m0/strided_slice/stack_1"
      input: "dnn/input_from_feature_columns/input_layer/aord_m0/strided_slice/stack_2"
      attr {
        key: "Index"
        value {
          type: DT_INT32
        }
      }
      attr {
        key: "T"
        value {
          type: DT_INT32
        }
      }
      attr {
        key: "_output_shapes"
        value {
          list {
            shape {
            }
          }
        }
      }
      attr {
        key: "begin_mask"
        value {
          i: 0
        }
      }
      attr {
        key: "ellipsis_mask"
        value {
          i: 0
        }
      }
      attr {
        key: "end_mask"
        value {
          i: 0
        }
      }
      attr {
        key: "new_axis_mask"
        value {
          i: 0
        }
      }
      attr {
        key: "shrink_axis_mask"
        value {
          i: 1
        }
      }
    }
    node {
      name: "dnn/input_from_feature_columns/input_layer/aord_m0/Reshape/shape/1"
      op: "Const"
      attr {
        key: "_output_shapes"
        value {
          list {
            shape {
            }
          }
        }
      }
      attr {
        key: "dtype"
        value {
          type: DT_INT32
        }
      }
      attr {
        key: "value"
        value {
          tensor {
            dtype: DT_INT32
            tensor_shape {
            }
            int_val: 1
          }
        }
      }
    }
    node {
      name: "dnn/input_from_feature_columns/input_layer/aord_m0/Reshape/shape"
      op: "Pack"
      input: "dnn/input_from_feature_columns/input_layer/aord_m0/strided_slice"
      input: "dnn/input_from_feature_columns/input_layer/aord_m0/Reshape/shape/1"
      attr {
        key: "N"
        value {
          i: 2
        }
      }
      attr {
        key: "T"
        value {
          type: DT_INT32
        }
      }
      attr {
        key: "_output_shapes"
        value {
          list {
            shape {
              dim {
                size: 2
              }
            }
          }
        }
      }
      attr {
        key: "axis"
        value {
          i: 0
        }
      }
    }
    node {
      name: "dnn/input_from_feature_columns/input_layer/aord_m0/Reshape"
      op: "Reshape"
      input: "DecodeCSV:14"
      input: "dnn/input_from_feature_columns/input_layer/aord_m0/Reshape/shape"
      attr {
        key: "T"
        value {
          type: DT_FLOAT
        }
      }
      attr {
        key: "Tshape"
        value {
          type: DT_INT32
        }
      }
      attr {
        key: "_output_shapes"
        value {
          list {
            shape {
              dim {
                size: -1
              }
              dim {
                size: 1
              }
            }
          }
        }
      }
    }
    node {
      name: "dnn/input_from_feature_columns/input_layer/aord_m1/Shape"
      op: "Shape"
      input: "DecodeCSV:15"
      attr {
        key: "T"
        value {
          type: DT_FLOAT
        }
      }
      attr {
        key: "_output_shapes"
        value {
          list {
            shape {
              dim {
                size: 2
              }
            }
          }
        }
      }
      attr {
        key: "out_type"
        value {
          type: DT_INT32
        }
      }
    }
    node {
      name: "dnn/input_from_feature_columns/input_layer/aord_m1/strided_slice/stack"
      op: "Const"
      attr {
        key: "_output_shapes"
        value {
          list {
            shape {
              dim {
                size: 1
              }
            }
          }
        }
      }
      attr {
        key: "dtype"
        value {
          type: DT_INT32
        }
      }
      attr {
        key: "value"
        value {
          tensor {
            dtype: DT_INT32
            tensor_shape {
              dim {
                size: 1
              }
            }
            int_val: 0
          }
        }
      }
    }
    node {
      name: "dnn/input_from_feature_columns/input_layer/aord_m1/strided_slice/stack_1"
      op: "Const"
      attr {
        key: "_output_shapes"
        value {
          list {
            shape {
              dim {
                size: 1
              }
            }
          }
        }
      }
      attr {
        key: "dtype"
        value {
          type: DT_INT32
        }
      }
      attr {
        key: "value"
        value {
          tensor {
            dtype: DT_INT32
            tensor_shape {
              dim {
                size: 1
              }
            }
            int_val: 1
          }
        }
      }
    }
    node {
      name: "dnn/input_from_feature_columns/input_layer/aord_m1/strided_slice/stack_2"
      op: "Const"
      attr {
        key: "_output_shapes"
        value {
          list {
            shape {
              dim {
                size: 1
              }
            }
          }
        }
      }
      attr {
        key: "dtype"
        value {
          type: DT_INT32
        }
      }
      attr {
        key: "value"
        value {
          tensor {
            dtype: DT_INT32
            tensor_shape {
              dim {
                size: 1
              }
            }
            int_val: 1
          }
        }
      }
    }
    node {
      name: "dnn/input_from_feature_columns/input_layer/aord_m1/strided_slice"
      op: "StridedSlice"
      input: "dnn/input_from_feature_columns/input_layer/aord_m1/Shape"
      input: "dnn/input_from_feature_columns/input_layer/aord_m1/strided_slice/stack"
      input: "dnn/input_from_feature_columns/input_layer/aord_m1/strided_slice/stack_1"
      input: "dnn/input_from_feature_columns/input_layer/aord_m1/strided_slice/stack_2"
      attr {
        key: "Index"
        value {
          type: DT_INT32
        }
      }
      attr {
        key: "T"
        value {
          type: DT_INT32
        }
      }
      attr {
        key: "_output_shapes"
        value {
          list {
            shape {
            }
          }
        }
      }
      attr {
        key: "begin_mask"
        value {
          i: 0
        }
      }
      attr {
        key: "ellipsis_mask"
        value {
          i: 0
        }
      }
      attr {
        key: "end_mask"
        value {
          i: 0
        }
      }
      attr {
        key: "new_axis_mask"
        value {
          i: 0
        }
      }
      attr {
        key: "shrink_axis_mask"
        value {
          i: 1
        }
      }
    }
    node {
      name: "dnn/input_from_feature_columns/input_layer/aord_m1/Reshape/shape/1"
      op: "Const"
      attr {
        key: "_output_shapes"
        value {
          list {
            shape {
            }
          }
        }
      }
      attr {
        key: "dtype"
        value {
          type: DT_INT32
        }
      }
      attr {
        key: "value"
        value {
          tensor {
            dtype: DT_INT32
            tensor_shape {
            }
            int_val: 1
          }
        }
      }
    }
    node {
      name: "dnn/input_from_feature_columns/input_layer/aord_m1/Reshape/shape"
      op: "Pack"
      input: "dnn/input_from_feature_columns/input_layer/aord_m1/strided_slice"
      input: "dnn/input_from_feature_columns/input_layer/aord_m1/Reshape/shape/1"
      attr {
        key: "N"
        value {
          i: 2
        }
      }
      attr {
        key: "T"
        value {
          type: DT_INT32
        }
      }
      attr {
        key: "_output_shapes"
        value {
          list {
            shape {
              dim {
                size: 2
              }
            }
          }
        }
      }
      attr {
        key: "axis"
        value {
          i: 0
        }
      }
    }
    node {
      name: "dnn/input_from_feature_columns/input_layer/aord_m1/Reshape"
      op: "Reshape"
      input: "DecodeCSV:15"
      input: "dnn/input_from_feature_columns/input_layer/aord_m1/Reshape/shape"
      attr {
        key: "T"
        value {
          type: DT_FLOAT
        }
      }
      attr {
        key: "Tshape"
        value {
          type: DT_INT32
        }
      }
      attr {
        key: "_output_shapes"
        value {
          list {
            shape {
              dim {
                size: -1
              }
              dim {
                size: 1
              }
            }
          }
        }
      }
    }
    node {
      name: "dnn/input_from_feature_columns/input_layer/dax_m0/Shape"
      op: "Shape"
      input: "DecodeCSV:12"
      attr {
        key: "T"
        value {
          type: DT_FLOAT
        }
      }
      attr {
        key: "_output_shapes"
        value {
          list {
            shape {
              dim {
                size: 2
              }
            }
          }
        }
      }
      attr {
        key: "out_type"
        value {
          type: DT_INT32
        }
      }
    }
    node {
      name: "dnn/input_from_feature_columns/input_layer/dax_m0/strided_slice/stack"
      op: "Const"
      attr {
        key: "_output_shapes"
        value {
          list {
            shape {
              dim {
                size: 1
              }
            }
          }
        }
      }
      attr {
        key: "dtype"
        value {
          type: DT_INT32
        }
      }
      attr {
        key: "value"
        value {
          tensor {
            dtype: DT_INT32
            tensor_shape {
              dim {
                size: 1
              }
            }
            int_val: 0
          }
        }
      }
    }
    node {
      name: "dnn/input_from_feature_columns/input_layer/dax_m0/strided_slice/stack_1"
      op: "Const"
      attr {
        key: "_output_shapes"
        value {
          list {
            shape {
              dim {
                size: 1
              }
            }
          }
        }
      }
      attr {
        key: "dtype"
        value {
          type: DT_INT32
        }
      }
      attr {
        key: "value"
        value {
          tensor {
            dtype: DT_INT32
            tensor_shape {
              dim {
                size: 1
              }
            }
            int_val: 1
          }
        }
      }
    }
    node {
      name: "dnn/input_from_feature_columns/input_layer/dax_m0/strided_slice/stack_2"
      op: "Const"
      attr {
        key: "_output_shapes"
        value {
          list {
            shape {
              dim {
                size: 1
              }
            }
          }
        }
      }
      attr {
        key: "dtype"
        value {
          type: DT_INT32
        }
      }
      attr {
        key: "value"
        value {
          tensor {
            dtype: DT_INT32
            tensor_shape {
              dim {
                size: 1
              }
            }
            int_val: 1
          }
        }
      }
    }
    node {
      name: "dnn/input_from_feature_columns/input_layer/dax_m0/strided_slice"
      op: "StridedSlice"
      input: "dnn/input_from_feature_columns/input_layer/dax_m0/Shape"
      input: "dnn/input_from_feature_columns/input_layer/dax_m0/strided_slice/stack"
      input: "dnn/input_from_feature_columns/input_layer/dax_m0/strided_slice/stack_1"
      input: "dnn/input_from_feature_columns/input_layer/dax_m0/strided_slice/stack_2"
      attr {
        key: "Index"
        value {
          type: DT_INT32
        }
      }
      attr {
        key: "T"
        value {
          type: DT_INT32
        }
      }
      attr {
        key: "_output_shapes"
        value {
          list {
            shape {
            }
          }
        }
      }
      attr {
        key: "begin_mask"
        value {
          i: 0
        }
      }
      attr {
        key: "ellipsis_mask"
        value {
          i: 0
        }
      }
      attr {
        key: "end_mask"
        value {
          i: 0
        }
      }
      attr {
        key: "new_axis_mask"
        value {
          i: 0
        }
      }
      attr {
        key: "shrink_axis_mask"
        value {
          i: 1
        }
      }
    }
    node {
      name: "dnn/input_from_feature_columns/input_layer/dax_m0/Reshape/shape/1"
      op: "Const"
      attr {
        key: "_output_shapes"
        value {
          list {
            shape {
            }
          }
        }
      }
      attr {
        key: "dtype"
        value {
          type: DT_INT32
        }
      }
      attr {
        key: "value"
        value {
          tensor {
            dtype: DT_INT32
            tensor_shape {
            }
            int_val: 1
          }
        }
      }
    }
    node {
      name: "dnn/input_from_feature_columns/input_layer/dax_m0/Reshape/shape"
      op: "Pack"
      input: "dnn/input_from_feature_columns/input_layer/dax_m0/strided_slice"
      input: "dnn/input_from_feature_columns/input_layer/dax_m0/Reshape/shape/1"
      attr {
        key: "N"
        value {
          i: 2
        }
      }
      attr {
        key: "T"
        value {
          type: DT_INT32
        }
      }
      attr {
        key: "_output_shapes"
        value {
          list {
            shape {
              dim {
                size: 2
              }
            }
          }
        }
      }
      attr {
        key: "axis"
        value {
          i: 0
        }
      }
    }
    node {
      name: "dnn/input_from_feature_columns/input_layer/dax_m0/Reshape"
      op: "Reshape"
      input: "DecodeCSV:12"
      input: "dnn/input_from_feature_columns/input_layer/dax_m0/Reshape/shape"
      attr {
        key: "T"
        value {
          type: DT_FLOAT
        }
      }
      attr {
        key: "Tshape"
        value {
          type: DT_INT32
        }
      }
      attr {
        key: "_output_shapes"
        value {
          list {
            shape {
              dim {
                size: -1
              }
              dim {
                size: 1
              }
            }
          }
        }
      }
    }
    node {
      name: "dnn/input_from_feature_columns/input_layer/dax_m1/Shape"
      op: "Shape"
      input: "DecodeCSV:13"
      attr {
        key: "T"
        value {
          type: DT_FLOAT
        }
      }
      attr {
        key: "_output_shapes"
        value {
          list {
            shape {
              dim {
                size: 2
              }
            }
          }
        }
      }
      attr {
        key: "out_type"
        value {
          type: DT_INT32
        }
      }
    }
    node {
      name: "dnn/input_from_feature_columns/input_layer/dax_m1/strided_slice/stack"
      op: "Const"
      attr {
        key: "_output_shapes"
        value {
          list {
            shape {
              dim {
                size: 1
              }
            }
          }
        }
      }
      attr {
        key: "dtype"
        value {
          type: DT_INT32
        }
      }
      attr {
        key: "value"
        value {
          tensor {
            dtype: DT_INT32
            tensor_shape {
              dim {
                size: 1
              }
            }
            int_val: 0
          }
        }
      }
    }
    node {
      name: "dnn/input_from_feature_columns/input_layer/dax_m1/strided_slice/stack_1"
      op: "Const"
      attr {
        key: "_output_shapes"
        value {
          list {
            shape {
              dim {
                size: 1
              }
            }
          }
        }
      }
      attr {
        key: "dtype"
        value {
          type: DT_INT32
        }
      }
      attr {
        key: "value"
        value {
          tensor {
            dtype: DT_INT32
            tensor_shape {
              dim {
                size: 1
              }
            }
            int_val: 1
          }
        }
      }
    }
    node {
      name: "dnn/input_from_feature_columns/input_layer/dax_m1/strided_slice/stack_2"
      op: "Const"
      attr {
        key: "_output_shapes"
        value {
          list {
            shape {
              dim {
                size: 1
              }
            }
          }
        }
      }
      attr {
        key: "dtype"
        value {
          type: DT_INT32
        }
      }
      attr {
        key: "value"
        value {
          tensor {
            dtype: DT_INT32
            tensor_shape {
              dim {
                size: 1
              }
            }
            int_val: 1
          }
        }
      }
    }
    node {
      name: "dnn/input_from_feature_columns/input_layer/dax_m1/strided_slice"
      op: "StridedSlice"
      input: "dnn/input_from_feature_columns/input_layer/dax_m1/Shape"
      input: "dnn/input_from_feature_columns/input_layer/dax_m1/strided_slice/stack"
      input: "dnn/input_from_feature_columns/input_layer/dax_m1/strided_slice/stack_1"
      input: "dnn/input_from_feature_columns/input_layer/dax_m1/strided_slice/stack_2"
      attr {
        key: "Index"
        value {
          type: DT_INT32
        }
      }
      attr {
        key: "T"
        value {
          type: DT_INT32
        }
      }
      attr {
        key: "_output_shapes"
        value {
          list {
            shape {
            }
          }
        }
      }
      attr {
        key: "begin_mask"
        value {
          i: 0
        }
      }
      attr {
        key: "ellipsis_mask"
        value {
          i: 0
        }
      }
      attr {
        key: "end_mask"
        value {
          i: 0
        }
      }
      attr {
        key: "new_axis_mask"
        value {
          i: 0
        }
      }
      attr {
        key: "shrink_axis_mask"
        value {
          i: 1
        }
      }
    }
    node {
      name: "dnn/input_from_feature_columns/input_layer/dax_m1/Reshape/shape/1"
      op: "Const"
      attr {
        key: "_output_shapes"
        value {
          list {
            shape {
            }
          }
        }
      }
      attr {
        key: "dtype"
        value {
          type: DT_INT32
        }
      }
      attr {
        key: "value"
        value {
          tensor {
            dtype: DT_INT32
            tensor_shape {
            }
            int_val: 1
          }
        }
      }
    }
    node {
      name: "dnn/input_from_feature_columns/input_layer/dax_m1/Reshape/shape"
      op: "Pack"
      input: "dnn/input_from_feature_columns/input_layer/dax_m1/strided_slice"
      input: "dnn/input_from_feature_columns/input_layer/dax_m1/Reshape/shape/1"
      attr {
        key: "N"
        value {
          i: 2
        }
      }
      attr {
        key: "T"
        value {
          type: DT_INT32
        }
      }
      attr {
        key: "_output_shapes"
        value {
          list {
            shape {
              dim {
                size: 2
              }
            }
          }
        }
      }
      attr {
        key: "axis"
        value {
          i: 0
        }
      }
    }
    node {
      name: "dnn/input_from_feature_columns/input_layer/dax_m1/Reshape"
      op: "Reshape"
      input: "DecodeCSV:13"
      input: "dnn/input_from_feature_columns/input_layer/dax_m1/Reshape/shape"
      attr {
        key: "T"
        value {
          type: DT_FLOAT
        }
      }
      attr {
        key: "Tshape"
        value {
          type: DT_INT32
        }
      }
      attr {
        key: "_output_shapes"
        value {
          list {
            shape {
              dim {
                size: -1
              }
              dim {
                size: 1
              }
            }
          }
        }
      }
    }
    node {
      name: "dnn/input_from_feature_columns/input_layer/djia_m1/Shape"
      op: "Shape"
      input: "DecodeCSV:4"
      attr {
        key: "T"
        value {
          type: DT_FLOAT
        }
      }
      attr {
        key: "_output_shapes"
        value {
          list {
            shape {
              dim {
                size: 2
              }
            }
          }
        }
      }
      attr {
        key: "out_type"
        value {
          type: DT_INT32
        }
      }
    }
    node {
      name: "dnn/input_from_feature_columns/input_layer/djia_m1/strided_slice/stack"
      op: "Const"
      attr {
        key: "_output_shapes"
        value {
          list {
            shape {
              dim {
                size: 1
              }
            }
          }
        }
      }
      attr {
        key: "dtype"
        value {
          type: DT_INT32
        }
      }
      attr {
        key: "value"
        value {
          tensor {
            dtype: DT_INT32
            tensor_shape {
              dim {
                size: 1
              }
            }
            int_val: 0
          }
        }
      }
    }
    node {
      name: "dnn/input_from_feature_columns/input_layer/djia_m1/strided_slice/stack_1"
      op: "Const"
      attr {
        key: "_output_shapes"
        value {
          list {
            shape {
              dim {
                size: 1
              }
            }
          }
        }
      }
      attr {
        key: "dtype"
        value {
          type: DT_INT32
        }
      }
      attr {
        key: "value"
        value {
          tensor {
            dtype: DT_INT32
            tensor_shape {
              dim {
                size: 1
              }
            }
            int_val: 1
          }
        }
      }
    }
    node {
      name: "dnn/input_from_feature_columns/input_layer/djia_m1/strided_slice/stack_2"
      op: "Const"
      attr {
        key: "_output_shapes"
        value {
          list {
            shape {
              dim {
                size: 1
              }
            }
          }
        }
      }
      attr {
        key: "dtype"
        value {
          type: DT_INT32
        }
      }
      attr {
        key: "value"
        value {
          tensor {
            dtype: DT_INT32
            tensor_shape {
              dim {
                size: 1
              }
            }
            int_val: 1
          }
        }
      }
    }
    node {
      name: "dnn/input_from_feature_columns/input_layer/djia_m1/strided_slice"
      op: "StridedSlice"
      input: "dnn/input_from_feature_columns/input_layer/djia_m1/Shape"
      input: "dnn/input_from_feature_columns/input_layer/djia_m1/strided_slice/stack"
      input: "dnn/input_from_feature_columns/input_layer/djia_m1/strided_slice/stack_1"
      input: "dnn/input_from_feature_columns/input_layer/djia_m1/strided_slice/stack_2"
      attr {
        key: "Index"
        value {
          type: DT_INT32
        }
      }
      attr {
        key: "T"
        value {
          type: DT_INT32
        }
      }
      attr {
        key: "_output_shapes"
        value {
          list {
            shape {
            }
          }
        }
      }
      attr {
        key: "begin_mask"
        value {
          i: 0
        }
      }
      attr {
        key: "ellipsis_mask"
        value {
          i: 0
        }
      }
      attr {
        key: "end_mask"
        value {
          i: 0
        }
      }
      attr {
        key: "new_axis_mask"
        value {
          i: 0
        }
      }
      attr {
        key: "shrink_axis_mask"
        value {
          i: 1
        }
      }
    }
    node {
      name: "dnn/input_from_feature_columns/input_layer/djia_m1/Reshape/shape/1"
      op: "Const"
      attr {
        key: "_output_shapes"
        value {
          list {
            shape {
            }
          }
        }
      }
      attr {
        key: "dtype"
        value {
          type: DT_INT32
        }
      }
      attr {
        key: "value"
        value {
          tensor {
            dtype: DT_INT32
            tensor_shape {
            }
            int_val: 1
          }
        }
      }
    }
    node {
      name: "dnn/input_from_feature_columns/input_layer/djia_m1/Reshape/shape"
      op: "Pack"
      input: "dnn/input_from_feature_columns/input_layer/djia_m1/strided_slice"
      input: "dnn/input_from_feature_columns/input_layer/djia_m1/Reshape/shape/1"
      attr {
        key: "N"
        value {
          i: 2
        }
      }
      attr {
        key: "T"
        value {
          type: DT_INT32
        }
      }
      attr {
        key: "_output_shapes"
        value {
          list {
            shape {
              dim {
                size: 2
              }
            }
          }
        }
      }
      attr {
        key: "axis"
        value {
          i: 0
        }
      }
    }
    node {
      name: "dnn/input_from_feature_columns/input_layer/djia_m1/Reshape"
      op: "Reshape"
      input: "DecodeCSV:4"
      input: "dnn/input_from_feature_columns/input_layer/djia_m1/Reshape/shape"
      attr {
        key: "T"
        value {
          type: DT_FLOAT
        }
      }
      attr {
        key: "Tshape"
        value {
          type: DT_INT32
        }
      }
      attr {
        key: "_output_shapes"
        value {
          list {
            shape {
              dim {
                size: -1
              }
              dim {
                size: 1
              }
            }
          }
        }
      }
    }
    node {
      name: "dnn/input_from_feature_columns/input_layer/djia_m2/Shape"
      op: "Shape"
      input: "DecodeCSV:5"
      attr {
        key: "T"
        value {
          type: DT_FLOAT
        }
      }
      attr {
        key: "_output_shapes"
        value {
          list {
            shape {
              dim {
                size: 2
              }
            }
          }
        }
      }
      attr {
        key: "out_type"
        value {
          type: DT_INT32
        }
      }
    }
    node {
      name: "dnn/input_from_feature_columns/input_layer/djia_m2/strided_slice/stack"
      op: "Const"
      attr {
        key: "_output_shapes"
        value {
          list {
            shape {
              dim {
                size: 1
              }
            }
          }
        }
      }
      attr {
        key: "dtype"
        value {
          type: DT_INT32
        }
      }
      attr {
        key: "value"
        value {
          tensor {
            dtype: DT_INT32
            tensor_shape {
              dim {
                size: 1
              }
            }
            int_val: 0
          }
        }
      }
    }
    node {
      name: "dnn/input_from_feature_columns/input_layer/djia_m2/strided_slice/stack_1"
      op: "Const"
      attr {
        key: "_output_shapes"
        value {
          list {
            shape {
              dim {
                size: 1
              }
            }
          }
        }
      }
      attr {
        key: "dtype"
        value {
          type: DT_INT32
        }
      }
      attr {
        key: "value"
        value {
          tensor {
            dtype: DT_INT32
            tensor_shape {
              dim {
                size: 1
              }
            }
            int_val: 1
          }
        }
      }
    }
    node {
      name: "dnn/input_from_feature_columns/input_layer/djia_m2/strided_slice/stack_2"
      op: "Const"
      attr {
        key: "_output_shapes"
        value {
          list {
            shape {
              dim {
                size: 1
              }
            }
          }
        }
      }
      attr {
        key: "dtype"
        value {
          type: DT_INT32
        }
      }
      attr {
        key: "value"
        value {
          tensor {
            dtype: DT_INT32
            tensor_shape {
              dim {
                size: 1
              }
            }
            int_val: 1
          }
        }
      }
    }
    node {
      name: "dnn/input_from_feature_columns/input_layer/djia_m2/strided_slice"
      op: "StridedSlice"
      input: "dnn/input_from_feature_columns/input_layer/djia_m2/Shape"
      input: "dnn/input_from_feature_columns/input_layer/djia_m2/strided_slice/stack"
      input: "dnn/input_from_feature_columns/input_layer/djia_m2/strided_slice/stack_1"
      input: "dnn/input_from_feature_columns/input_layer/djia_m2/strided_slice/stack_2"
      attr {
        key: "Index"
        value {
          type: DT_INT32
        }
      }
      attr {
        key: "T"
        value {
          type: DT_INT32
        }
      }
      attr {
        key: "_output_shapes"
        value {
          list {
            shape {
            }
          }
        }
      }
      attr {
        key: "begin_mask"
        value {
          i: 0
        }
      }
      attr {
        key: "ellipsis_mask"
        value {
          i: 0
        }
      }
      attr {
        key: "end_mask"
        value {
          i: 0
        }
      }
      attr {
        key: "new_axis_mask"
        value {
          i: 0
        }
      }
      attr {
        key: "shrink_axis_mask"
        value {
          i: 1
        }
      }
    }
    node {
      name: "dnn/input_from_feature_columns/input_layer/djia_m2/Reshape/shape/1"
      op: "Const"
      attr {
        key: "_output_shapes"
        value {
          list {
            shape {
            }
          }
        }
      }
      attr {
        key: "dtype"
        value {
          type: DT_INT32
        }
      }
      attr {
        key: "value"
        value {
          tensor {
            dtype: DT_INT32
            tensor_shape {
            }
            int_val: 1
          }
        }
      }
    }
    node {
      name: "dnn/input_from_feature_columns/input_layer/djia_m2/Reshape/shape"
      op: "Pack"
      input: "dnn/input_from_feature_columns/input_layer/djia_m2/strided_slice"
      input: "dnn/input_from_feature_columns/input_layer/djia_m2/Reshape/shape/1"
      attr {
        key: "N"
        value {
          i: 2
        }
      }
      attr {
        key: "T"
        value {
          type: DT_INT32
        }
      }
      attr {
        key: "_output_shapes"
        value {
          list {
            shape {
              dim {
                size: 2
              }
            }
          }
        }
      }
      attr {
        key: "axis"
        value {
          i: 0
        }
      }
    }
    node {
      name: "dnn/input_from_feature_columns/input_layer/djia_m2/Reshape"
      op: "Reshape"
      input: "DecodeCSV:5"
      input: "dnn/input_from_feature_columns/input_layer/djia_m2/Reshape/shape"
      attr {
        key: "T"
        value {
          type: DT_FLOAT
        }
      }
      attr {
        key: "Tshape"
        value {
          type: DT_INT32
        }
      }
      attr {
        key: "_output_shapes"
        value {
          list {
            shape {
              dim {
                size: -1
              }
              dim {
                size: 1
              }
            }
          }
        }
      }
    }
    node {
      name: "dnn/input_from_feature_columns/input_layer/ftse_m0/Shape"
      op: "Shape"
      input: "DecodeCSV:10"
      attr {
        key: "T"
        value {
          type: DT_FLOAT
        }
      }
      attr {
        key: "_output_shapes"
        value {
          list {
            shape {
              dim {
                size: 2
              }
            }
          }
        }
      }
      attr {
        key: "out_type"
        value {
          type: DT_INT32
        }
      }
    }
    node {
      name: "dnn/input_from_feature_columns/input_layer/ftse_m0/strided_slice/stack"
      op: "Const"
      attr {
        key: "_output_shapes"
        value {
          list {
            shape {
              dim {
                size: 1
              }
            }
          }
        }
      }
      attr {
        key: "dtype"
        value {
          type: DT_INT32
        }
      }
      attr {
        key: "value"
        value {
          tensor {
            dtype: DT_INT32
            tensor_shape {
              dim {
                size: 1
              }
            }
            int_val: 0
          }
        }
      }
    }
    node {
      name: "dnn/input_from_feature_columns/input_layer/ftse_m0/strided_slice/stack_1"
      op: "Const"
      attr {
        key: "_output_shapes"
        value {
          list {
            shape {
              dim {
                size: 1
              }
            }
          }
        }
      }
      attr {
        key: "dtype"
        value {
          type: DT_INT32
        }
      }
      attr {
        key: "value"
        value {
          tensor {
            dtype: DT_INT32
            tensor_shape {
              dim {
                size: 1
              }
            }
            int_val: 1
          }
        }
      }
    }
    node {
      name: "dnn/input_from_feature_columns/input_layer/ftse_m0/strided_slice/stack_2"
      op: "Const"
      attr {
        key: "_output_shapes"
        value {
          list {
            shape {
              dim {
                size: 1
              }
            }
          }
        }
      }
      attr {
        key: "dtype"
        value {
          type: DT_INT32
        }
      }
      attr {
        key: "value"
        value {
          tensor {
            dtype: DT_INT32
            tensor_shape {
              dim {
                size: 1
              }
            }
            int_val: 1
          }
        }
      }
    }
    node {
      name: "dnn/input_from_feature_columns/input_layer/ftse_m0/strided_slice"
      op: "StridedSlice"
      input: "dnn/input_from_feature_columns/input_layer/ftse_m0/Shape"
      input: "dnn/input_from_feature_columns/input_layer/ftse_m0/strided_slice/stack"
      input: "dnn/input_from_feature_columns/input_layer/ftse_m0/strided_slice/stack_1"
      input: "dnn/input_from_feature_columns/input_layer/ftse_m0/strided_slice/stack_2"
      attr {
        key: "Index"
        value {
          type: DT_INT32
        }
      }
      attr {
        key: "T"
        value {
          type: DT_INT32
        }
      }
      attr {
        key: "_output_shapes"
        value {
          list {
            shape {
            }
          }
        }
      }
      attr {
        key: "begin_mask"
        value {
          i: 0
        }
      }
      attr {
        key: "ellipsis_mask"
        value {
          i: 0
        }
      }
      attr {
        key: "end_mask"
        value {
          i: 0
        }
      }
      attr {
        key: "new_axis_mask"
        value {
          i: 0
        }
      }
      attr {
        key: "shrink_axis_mask"
        value {
          i: 1
        }
      }
    }
    node {
      name: "dnn/input_from_feature_columns/input_layer/ftse_m0/Reshape/shape/1"
      op: "Const"
      attr {
        key: "_output_shapes"
        value {
          list {
            shape {
            }
          }
        }
      }
      attr {
        key: "dtype"
        value {
          type: DT_INT32
        }
      }
      attr {
        key: "value"
        value {
          tensor {
            dtype: DT_INT32
            tensor_shape {
            }
            int_val: 1
          }
        }
      }
    }
    node {
      name: "dnn/input_from_feature_columns/input_layer/ftse_m0/Reshape/shape"
      op: "Pack"
      input: "dnn/input_from_feature_columns/input_layer/ftse_m0/strided_slice"
      input: "dnn/input_from_feature_columns/input_layer/ftse_m0/Reshape/shape/1"
      attr {
        key: "N"
        value {
          i: 2
        }
      }
      attr {
        key: "T"
        value {
          type: DT_INT32
        }
      }
      attr {
        key: "_output_shapes"
        value {
          list {
            shape {
              dim {
                size: 2
              }
            }
          }
        }
      }
      attr {
        key: "axis"
        value {
          i: 0
        }
      }
    }
    node {
      name: "dnn/input_from_feature_columns/input_layer/ftse_m0/Reshape"
      op: "Reshape"
      input: "DecodeCSV:10"
      input: "dnn/input_from_feature_columns/input_layer/ftse_m0/Reshape/shape"
      attr {
        key: "T"
        value {
          type: DT_FLOAT
        }
      }
      attr {
        key: "Tshape"
        value {
          type: DT_INT32
        }
      }
      attr {
        key: "_output_shapes"
        value {
          list {
            shape {
              dim {
                size: -1
              }
              dim {
                size: 1
              }
            }
          }
        }
      }
    }
    node {
      name: "dnn/input_from_feature_columns/input_layer/ftse_m1/Shape"
      op: "Shape"
      input: "DecodeCSV:11"
      attr {
        key: "T"
        value {
          type: DT_FLOAT
        }
      }
      attr {
        key: "_output_shapes"
        value {
          list {
            shape {
              dim {
                size: 2
              }
            }
          }
        }
      }
      attr {
        key: "out_type"
        value {
          type: DT_INT32
        }
      }
    }
    node {
      name: "dnn/input_from_feature_columns/input_layer/ftse_m1/strided_slice/stack"
      op: "Const"
      attr {
        key: "_output_shapes"
        value {
          list {
            shape {
              dim {
                size: 1
              }
            }
          }
        }
      }
      attr {
        key: "dtype"
        value {
          type: DT_INT32
        }
      }
      attr {
        key: "value"
        value {
          tensor {
            dtype: DT_INT32
            tensor_shape {
              dim {
                size: 1
              }
            }
            int_val: 0
          }
        }
      }
    }
    node {
      name: "dnn/input_from_feature_columns/input_layer/ftse_m1/strided_slice/stack_1"
      op: "Const"
      attr {
        key: "_output_shapes"
        value {
          list {
            shape {
              dim {
                size: 1
              }
            }
          }
        }
      }
      attr {
        key: "dtype"
        value {
          type: DT_INT32
        }
      }
      attr {
        key: "value"
        value {
          tensor {
            dtype: DT_INT32
            tensor_shape {
              dim {
                size: 1
              }
            }
            int_val: 1
          }
        }
      }
    }
    node {
      name: "dnn/input_from_feature_columns/input_layer/ftse_m1/strided_slice/stack_2"
      op: "Const"
      attr {
        key: "_output_shapes"
        value {
          list {
            shape {
              dim {
                size: 1
              }
            }
          }
        }
      }
      attr {
        key: "dtype"
        value {
          type: DT_INT32
        }
      }
      attr {
        key: "value"
        value {
          tensor {
            dtype: DT_INT32
            tensor_shape {
              dim {
                size: 1
              }
            }
            int_val: 1
          }
        }
      }
    }
    node {
      name: "dnn/input_from_feature_columns/input_layer/ftse_m1/strided_slice"
      op: "StridedSlice"
      input: "dnn/input_from_feature_columns/input_layer/ftse_m1/Shape"
      input: "dnn/input_from_feature_columns/input_layer/ftse_m1/strided_slice/stack"
      input: "dnn/input_from_feature_columns/input_layer/ftse_m1/strided_slice/stack_1"
      input: "dnn/input_from_feature_columns/input_layer/ftse_m1/strided_slice/stack_2"
      attr {
        key: "Index"
        value {
          type: DT_INT32
        }
      }
      attr {
        key: "T"
        value {
          type: DT_INT32
        }
      }
      attr {
        key: "_output_shapes"
        value {
          list {
            shape {
            }
          }
        }
      }
      attr {
        key: "begin_mask"
        value {
          i: 0
        }
      }
      attr {
        key: "ellipsis_mask"
        value {
          i: 0
        }
      }
      attr {
        key: "end_mask"
        value {
          i: 0
        }
      }
      attr {
        key: "new_axis_mask"
        value {
          i: 0
        }
      }
      attr {
        key: "shrink_axis_mask"
        value {
          i: 1
        }
      }
    }
    node {
      name: "dnn/input_from_feature_columns/input_layer/ftse_m1/Reshape/shape/1"
      op: "Const"
      attr {
        key: "_output_shapes"
        value {
          list {
            shape {
            }
          }
        }
      }
      attr {
        key: "dtype"
        value {
          type: DT_INT32
        }
      }
      attr {
        key: "value"
        value {
          tensor {
            dtype: DT_INT32
            tensor_shape {
            }
            int_val: 1
          }
        }
      }
    }
    node {
      name: "dnn/input_from_feature_columns/input_layer/ftse_m1/Reshape/shape"
      op: "Pack"
      input: "dnn/input_from_feature_columns/input_layer/ftse_m1/strided_slice"
      input: "dnn/input_from_feature_columns/input_layer/ftse_m1/Reshape/shape/1"
      attr {
        key: "N"
        value {
          i: 2
        }
      }
      attr {
        key: "T"
        value {
          type: DT_INT32
        }
      }
      attr {
        key: "_output_shapes"
        value {
          list {
            shape {
              dim {
                size: 2
              }
            }
          }
        }
      }
      attr {
        key: "axis"
        value {
          i: 0
        }
      }
    }
    node {
      name: "dnn/input_from_feature_columns/input_layer/ftse_m1/Reshape"
      op: "Reshape"
      input: "DecodeCSV:11"
      input: "dnn/input_from_feature_columns/input_layer/ftse_m1/Reshape/shape"
      attr {
        key: "T"
        value {
          type: DT_FLOAT
        }
      }
      attr {
        key: "Tshape"
        value {
          type: DT_INT32
        }
      }
      attr {
        key: "_output_shapes"
        value {
          list {
            shape {
              dim {
                size: -1
              }
              dim {
                size: 1
              }
            }
          }
        }
      }
    }
    node {
      name: "dnn/input_from_feature_columns/input_layer/hangseng_m0/Shape"
      op: "Shape"
      input: "DecodeCSV:8"
      attr {
        key: "T"
        value {
          type: DT_FLOAT
        }
      }
      attr {
        key: "_output_shapes"
        value {
          list {
            shape {
              dim {
                size: 2
              }
            }
          }
        }
      }
      attr {
        key: "out_type"
        value {
          type: DT_INT32
        }
      }
    }
    node {
      name: "dnn/input_from_feature_columns/input_layer/hangseng_m0/strided_slice/stack"
      op: "Const"
      attr {
        key: "_output_shapes"
        value {
          list {
            shape {
              dim {
                size: 1
              }
            }
          }
        }
      }
      attr {
        key: "dtype"
        value {
          type: DT_INT32
        }
      }
      attr {
        key: "value"
        value {
          tensor {
            dtype: DT_INT32
            tensor_shape {
              dim {
                size: 1
              }
            }
            int_val: 0
          }
        }
      }
    }
    node {
      name: "dnn/input_from_feature_columns/input_layer/hangseng_m0/strided_slice/stack_1"
      op: "Const"
      attr {
        key: "_output_shapes"
        value {
          list {
            shape {
              dim {
                size: 1
              }
            }
          }
        }
      }
      attr {
        key: "dtype"
        value {
          type: DT_INT32
        }
      }
      attr {
        key: "value"
        value {
          tensor {
            dtype: DT_INT32
            tensor_shape {
              dim {
                size: 1
              }
            }
            int_val: 1
          }
        }
      }
    }
    node {
      name: "dnn/input_from_feature_columns/input_layer/hangseng_m0/strided_slice/stack_2"
      op: "Const"
      attr {
        key: "_output_shapes"
        value {
          list {
            shape {
              dim {
                size: 1
              }
            }
          }
        }
      }
      attr {
        key: "dtype"
        value {
          type: DT_INT32
        }
      }
      attr {
        key: "value"
        value {
          tensor {
            dtype: DT_INT32
            tensor_shape {
              dim {
                size: 1
              }
            }
            int_val: 1
          }
        }
      }
    }
    node {
      name: "dnn/input_from_feature_columns/input_layer/hangseng_m0/strided_slice"
      op: "StridedSlice"
      input: "dnn/input_from_feature_columns/input_layer/hangseng_m0/Shape"
      input: "dnn/input_from_feature_columns/input_layer/hangseng_m0/strided_slice/stack"
      input: "dnn/input_from_feature_columns/input_layer/hangseng_m0/strided_slice/stack_1"
      input: "dnn/input_from_feature_columns/input_layer/hangseng_m0/strided_slice/stack_2"
      attr {
        key: "Index"
        value {
          type: DT_INT32
        }
      }
      attr {
        key: "T"
        value {
          type: DT_INT32
        }
      }
      attr {
        key: "_output_shapes"
        value {
          list {
            shape {
            }
          }
        }
      }
      attr {
        key: "begin_mask"
        value {
          i: 0
        }
      }
      attr {
        key: "ellipsis_mask"
        value {
          i: 0
        }
      }
      attr {
        key: "end_mask"
        value {
          i: 0
        }
      }
      attr {
        key: "new_axis_mask"
        value {
          i: 0
        }
      }
      attr {
        key: "shrink_axis_mask"
        value {
          i: 1
        }
      }
    }
    node {
      name: "dnn/input_from_feature_columns/input_layer/hangseng_m0/Reshape/shape/1"
      op: "Const"
      attr {
        key: "_output_shapes"
        value {
          list {
            shape {
            }
          }
        }
      }
      attr {
        key: "dtype"
        value {
          type: DT_INT32
        }
      }
      attr {
        key: "value"
        value {
          tensor {
            dtype: DT_INT32
            tensor_shape {
            }
            int_val: 1
          }
        }
      }
    }
    node {
      name: "dnn/input_from_feature_columns/input_layer/hangseng_m0/Reshape/shape"
      op: "Pack"
      input: "dnn/input_from_feature_columns/input_layer/hangseng_m0/strided_slice"
      input: "dnn/input_from_feature_columns/input_layer/hangseng_m0/Reshape/shape/1"
      attr {
        key: "N"
        value {
          i: 2
        }
      }
      attr {
        key: "T"
        value {
          type: DT_INT32
        }
      }
      attr {
        key: "_output_shapes"
        value {
          list {
            shape {
              dim {
                size: 2
              }
            }
          }
        }
      }
      attr {
        key: "axis"
        value {
          i: 0
        }
      }
    }
    node {
      name: "dnn/input_from_feature_columns/input_layer/hangseng_m0/Reshape"
      op: "Reshape"
      input: "DecodeCSV:8"
      input: "dnn/input_from_feature_columns/input_layer/hangseng_m0/Reshape/shape"
      attr {
        key: "T"
        value {
          type: DT_FLOAT
        }
      }
      attr {
        key: "Tshape"
        value {
          type: DT_INT32
        }
      }
      attr {
        key: "_output_shapes"
        value {
          list {
            shape {
              dim {
                size: -1
              }
              dim {
                size: 1
              }
            }
          }
        }
      }
    }
    node {
      name: "dnn/input_from_feature_columns/input_layer/hangseng_m1/Shape"
      op: "Shape"
      input: "DecodeCSV:9"
      attr {
        key: "T"
        value {
          type: DT_FLOAT
        }
      }
      attr {
        key: "_output_shapes"
        value {
          list {
            shape {
              dim {
                size: 2
              }
            }
          }
        }
      }
      attr {
        key: "out_type"
        value {
          type: DT_INT32
        }
      }
    }
    node {
      name: "dnn/input_from_feature_columns/input_layer/hangseng_m1/strided_slice/stack"
      op: "Const"
      attr {
        key: "_output_shapes"
        value {
          list {
            shape {
              dim {
                size: 1
              }
            }
          }
        }
      }
      attr {
        key: "dtype"
        value {
          type: DT_INT32
        }
      }
      attr {
        key: "value"
        value {
          tensor {
            dtype: DT_INT32
            tensor_shape {
              dim {
                size: 1
              }
            }
            int_val: 0
          }
        }
      }
    }
    node {
      name: "dnn/input_from_feature_columns/input_layer/hangseng_m1/strided_slice/stack_1"
      op: "Const"
      attr {
        key: "_output_shapes"
        value {
          list {
            shape {
              dim {
                size: 1
              }
            }
          }
        }
      }
      attr {
        key: "dtype"
        value {
          type: DT_INT32
        }
      }
      attr {
        key: "value"
        value {
          tensor {
            dtype: DT_INT32
            tensor_shape {
              dim {
                size: 1
              }
            }
            int_val: 1
          }
        }
      }
    }
    node {
      name: "dnn/input_from_feature_columns/input_layer/hangseng_m1/strided_slice/stack_2"
      op: "Const"
      attr {
        key: "_output_shapes"
        value {
          list {
            shape {
              dim {
                size: 1
              }
            }
          }
        }
      }
      attr {
        key: "dtype"
        value {
          type: DT_INT32
        }
      }
      attr {
        key: "value"
        value {
          tensor {
            dtype: DT_INT32
            tensor_shape {
              dim {
                size: 1
              }
            }
            int_val: 1
          }
        }
      }
    }
    node {
      name: "dnn/input_from_feature_columns/input_layer/hangseng_m1/strided_slice"
      op: "StridedSlice"
      input: "dnn/input_from_feature_columns/input_layer/hangseng_m1/Shape"
      input: "dnn/input_from_feature_columns/input_layer/hangseng_m1/strided_slice/stack"
      input: "dnn/input_from_feature_columns/input_layer/hangseng_m1/strided_slice/stack_1"
      input: "dnn/input_from_feature_columns/input_layer/hangseng_m1/strided_slice/stack_2"
      attr {
        key: "Index"
        value {
          type: DT_INT32
        }
      }
      attr {
        key: "T"
        value {
          type: DT_INT32
        }
      }
      attr {
        key: "_output_shapes"
        value {
          list {
            shape {
            }
          }
        }
      }
      attr {
        key: "begin_mask"
        value {
          i: 0
        }
      }
      attr {
        key: "ellipsis_mask"
        value {
          i: 0
        }
      }
      attr {
        key: "end_mask"
        value {
          i: 0
        }
      }
      attr {
        key: "new_axis_mask"
        value {
          i: 0
        }
      }
      attr {
        key: "shrink_axis_mask"
        value {
          i: 1
        }
      }
    }
    node {
      name: "dnn/input_from_feature_columns/input_layer/hangseng_m1/Reshape/shape/1"
      op: "Const"
      attr {
        key: "_output_shapes"
        value {
          list {
            shape {
            }
          }
        }
      }
      attr {
        key: "dtype"
        value {
          type: DT_INT32
        }
      }
      attr {
        key: "value"
        value {
          tensor {
            dtype: DT_INT32
            tensor_shape {
            }
            int_val: 1
          }
        }
      }
    }
    node {
      name: "dnn/input_from_feature_columns/input_layer/hangseng_m1/Reshape/shape"
      op: "Pack"
      input: "dnn/input_from_feature_columns/input_layer/hangseng_m1/strided_slice"
      input: "dnn/input_from_feature_columns/input_layer/hangseng_m1/Reshape/shape/1"
      attr {
        key: "N"
        value {
          i: 2
        }
      }
      attr {
        key: "T"
        value {
          type: DT_INT32
        }
      }
      attr {
        key: "_output_shapes"
        value {
          list {
            shape {
              dim {
                size: 2
              }
            }
          }
        }
      }
      attr {
        key: "axis"
        value {
          i: 0
        }
      }
    }
    node {
      name: "dnn/input_from_feature_columns/input_layer/hangseng_m1/Reshape"
      op: "Reshape"
      input: "DecodeCSV:9"
      input: "dnn/input_from_feature_columns/input_layer/hangseng_m1/Reshape/shape"
      attr {
        key: "T"
        value {
          type: DT_FLOAT
        }
      }
      attr {
        key: "Tshape"
        value {
          type: DT_INT32
        }
      }
      attr {
        key: "_output_shapes"
        value {
          list {
            shape {
              dim {
                size: -1
              }
              dim {
                size: 1
              }
            }
          }
        }
      }
    }
    node {
      name: "dnn/input_from_feature_columns/input_layer/nikkei_m0/Shape"
      op: "Shape"
      input: "DecodeCSV:6"
      attr {
        key: "T"
        value {
          type: DT_FLOAT
        }
      }
      attr {
        key: "_output_shapes"
        value {
          list {
            shape {
              dim {
                size: 2
              }
            }
          }
        }
      }
      attr {
        key: "out_type"
        value {
          type: DT_INT32
        }
      }
    }
    node {
      name: "dnn/input_from_feature_columns/input_layer/nikkei_m0/strided_slice/stack"
      op: "Const"
      attr {
        key: "_output_shapes"
        value {
          list {
            shape {
              dim {
                size: 1
              }
            }
          }
        }
      }
      attr {
        key: "dtype"
        value {
          type: DT_INT32
        }
      }
      attr {
        key: "value"
        value {
          tensor {
            dtype: DT_INT32
            tensor_shape {
              dim {
                size: 1
              }
            }
            int_val: 0
          }
        }
      }
    }
    node {
      name: "dnn/input_from_feature_columns/input_layer/nikkei_m0/strided_slice/stack_1"
      op: "Const"
      attr {
        key: "_output_shapes"
        value {
          list {
            shape {
              dim {
                size: 1
              }
            }
          }
        }
      }
      attr {
        key: "dtype"
        value {
          type: DT_INT32
        }
      }
      attr {
        key: "value"
        value {
          tensor {
            dtype: DT_INT32
            tensor_shape {
              dim {
                size: 1
              }
            }
            int_val: 1
          }
        }
      }
    }
    node {
      name: "dnn/input_from_feature_columns/input_layer/nikkei_m0/strided_slice/stack_2"
      op: "Const"
      attr {
        key: "_output_shapes"
        value {
          list {
            shape {
              dim {
                size: 1
              }
            }
          }
        }
      }
      attr {
        key: "dtype"
        value {
          type: DT_INT32
        }
      }
      attr {
        key: "value"
        value {
          tensor {
            dtype: DT_INT32
            tensor_shape {
              dim {
                size: 1
              }
            }
            int_val: 1
          }
        }
      }
    }
    node {
      name: "dnn/input_from_feature_columns/input_layer/nikkei_m0/strided_slice"
      op: "StridedSlice"
      input: "dnn/input_from_feature_columns/input_layer/nikkei_m0/Shape"
      input: "dnn/input_from_feature_columns/input_layer/nikkei_m0/strided_slice/stack"
      input: "dnn/input_from_feature_columns/input_layer/nikkei_m0/strided_slice/stack_1"
      input: "dnn/input_from_feature_columns/input_layer/nikkei_m0/strided_slice/stack_2"
      attr {
        key: "Index"
        value {
          type: DT_INT32
        }
      }
      attr {
        key: "T"
        value {
          type: DT_INT32
        }
      }
      attr {
        key: "_output_shapes"
        value {
          list {
            shape {
            }
          }
        }
      }
      attr {
        key: "begin_mask"
        value {
          i: 0
        }
      }
      attr {
        key: "ellipsis_mask"
        value {
          i: 0
        }
      }
      attr {
        key: "end_mask"
        value {
          i: 0
        }
      }
      attr {
        key: "new_axis_mask"
        value {
          i: 0
        }
      }
      attr {
        key: "shrink_axis_mask"
        value {
          i: 1
        }
      }
    }
    node {
      name: "dnn/input_from_feature_columns/input_layer/nikkei_m0/Reshape/shape/1"
      op: "Const"
      attr {
        key: "_output_shapes"
        value {
          list {
            shape {
            }
          }
        }
      }
      attr {
        key: "dtype"
        value {
          type: DT_INT32
        }
      }
      attr {
        key: "value"
        value {
          tensor {
            dtype: DT_INT32
            tensor_shape {
            }
            int_val: 1
          }
        }
      }
    }
    node {
      name: "dnn/input_from_feature_columns/input_layer/nikkei_m0/Reshape/shape"
      op: "Pack"
      input: "dnn/input_from_feature_columns/input_layer/nikkei_m0/strided_slice"
      input: "dnn/input_from_feature_columns/input_layer/nikkei_m0/Reshape/shape/1"
      attr {
        key: "N"
        value {
          i: 2
        }
      }
      attr {
        key: "T"
        value {
          type: DT_INT32
        }
      }
      attr {
        key: "_output_shapes"
        value {
          list {
            shape {
              dim {
                size: 2
              }
            }
          }
        }
      }
      attr {
        key: "axis"
        value {
          i: 0
        }
      }
    }
    node {
      name: "dnn/input_from_feature_columns/input_layer/nikkei_m0/Reshape"
      op: "Reshape"
      input: "DecodeCSV:6"
      input: "dnn/input_from_feature_columns/input_layer/nikkei_m0/Reshape/shape"
      attr {
        key: "T"
        value {
          type: DT_FLOAT
        }
      }
      attr {
        key: "Tshape"
        value {
          type: DT_INT32
        }
      }
      attr {
        key: "_output_shapes"
        value {
          list {
            shape {
              dim {
                size: -1
              }
              dim {
                size: 1
              }
            }
          }
        }
      }
    }
    node {
      name: "dnn/input_from_feature_columns/input_layer/nikkei_m1/Shape"
      op: "Shape"
      input: "DecodeCSV:7"
      attr {
        key: "T"
        value {
          type: DT_FLOAT
        }
      }
      attr {
        key: "_output_shapes"
        value {
          list {
            shape {
              dim {
                size: 2
              }
            }
          }
        }
      }
      attr {
        key: "out_type"
        value {
          type: DT_INT32
        }
      }
    }
    node {
      name: "dnn/input_from_feature_columns/input_layer/nikkei_m1/strided_slice/stack"
      op: "Const"
      attr {
        key: "_output_shapes"
        value {
          list {
            shape {
              dim {
                size: 1
              }
            }
          }
        }
      }
      attr {
        key: "dtype"
        value {
          type: DT_INT32
        }
      }
      attr {
        key: "value"
        value {
          tensor {
            dtype: DT_INT32
            tensor_shape {
              dim {
                size: 1
              }
            }
            int_val: 0
          }
        }
      }
    }
    node {
      name: "dnn/input_from_feature_columns/input_layer/nikkei_m1/strided_slice/stack_1"
      op: "Const"
      attr {
        key: "_output_shapes"
        value {
          list {
            shape {
              dim {
                size: 1
              }
            }
          }
        }
      }
      attr {
        key: "dtype"
        value {
          type: DT_INT32
        }
      }
      attr {
        key: "value"
        value {
          tensor {
            dtype: DT_INT32
            tensor_shape {
              dim {
                size: 1
              }
            }
            int_val: 1
          }
        }
      }
    }
    node {
      name: "dnn/input_from_feature_columns/input_layer/nikkei_m1/strided_slice/stack_2"
      op: "Const"
      attr {
        key: "_output_shapes"
        value {
          list {
            shape {
              dim {
                size: 1
              }
            }
          }
        }
      }
      attr {
        key: "dtype"
        value {
          type: DT_INT32
        }
      }
      attr {
        key: "value"
        value {
          tensor {
            dtype: DT_INT32
            tensor_shape {
              dim {
                size: 1
              }
            }
            int_val: 1
          }
        }
      }
    }
    node {
      name: "dnn/input_from_feature_columns/input_layer/nikkei_m1/strided_slice"
      op: "StridedSlice"
      input: "dnn/input_from_feature_columns/input_layer/nikkei_m1/Shape"
      input: "dnn/input_from_feature_columns/input_layer/nikkei_m1/strided_slice/stack"
      input: "dnn/input_from_feature_columns/input_layer/nikkei_m1/strided_slice/stack_1"
      input: "dnn/input_from_feature_columns/input_layer/nikkei_m1/strided_slice/stack_2"
      attr {
        key: "Index"
        value {
          type: DT_INT32
        }
      }
      attr {
        key: "T"
        value {
          type: DT_INT32
        }
      }
      attr {
        key: "_output_shapes"
        value {
          list {
            shape {
            }
          }
        }
      }
      attr {
        key: "begin_mask"
        value {
          i: 0
        }
      }
      attr {
        key: "ellipsis_mask"
        value {
          i: 0
        }
      }
      attr {
        key: "end_mask"
        value {
          i: 0
        }
      }
      attr {
        key: "new_axis_mask"
        value {
          i: 0
        }
      }
      attr {
        key: "shrink_axis_mask"
        value {
          i: 1
        }
      }
    }
    node {
      name: "dnn/input_from_feature_columns/input_layer/nikkei_m1/Reshape/shape/1"
      op: "Const"
      attr {
        key: "_output_shapes"
        value {
          list {
            shape {
            }
          }
        }
      }
      attr {
        key: "dtype"
        value {
          type: DT_INT32
        }
      }
      attr {
        key: "value"
        value {
          tensor {
            dtype: DT_INT32
            tensor_shape {
            }
            int_val: 1
          }
        }
      }
    }
    node {
      name: "dnn/input_from_feature_columns/input_layer/nikkei_m1/Reshape/shape"
      op: "Pack"
      input: "dnn/input_from_feature_columns/input_layer/nikkei_m1/strided_slice"
      input: "dnn/input_from_feature_columns/input_layer/nikkei_m1/Reshape/shape/1"
      attr {
        key: "N"
        value {
          i: 2
        }
      }
      attr {
        key: "T"
        value {
          type: DT_INT32
        }
      }
      attr {
        key: "_output_shapes"
        value {
          list {
            shape {
              dim {
                size: 2
              }
            }
          }
        }
      }
      attr {
        key: "axis"
        value {
          i: 0
        }
      }
    }
    node {
      name: "dnn/input_from_feature_columns/input_layer/nikkei_m1/Reshape"
      op: "Reshape"
      input: "DecodeCSV:7"
      input: "dnn/input_from_feature_columns/input_layer/nikkei_m1/Reshape/shape"
      attr {
        key: "T"
        value {
          type: DT_FLOAT
        }
      }
      attr {
        key: "Tshape"
        value {
          type: DT_INT32
        }
      }
      attr {
        key: "_output_shapes"
        value {
          list {
            shape {
              dim {
                size: -1
              }
              dim {
                size: 1
              }
            }
          }
        }
      }
    }
    node {
      name: "dnn/input_from_feature_columns/input_layer/nyse_m1/Shape"
      op: "Shape"
      input: "DecodeCSV:2"
      attr {
        key: "T"
        value {
          type: DT_FLOAT
        }
      }
      attr {
        key: "_output_shapes"
        value {
          list {
            shape {
              dim {
                size: 2
              }
            }
          }
        }
      }
      attr {
        key: "out_type"
        value {
          type: DT_INT32
        }
      }
    }
    node {
      name: "dnn/input_from_feature_columns/input_layer/nyse_m1/strided_slice/stack"
      op: "Const"
      attr {
        key: "_output_shapes"
        value {
          list {
            shape {
              dim {
                size: 1
              }
            }
          }
        }
      }
      attr {
        key: "dtype"
        value {
          type: DT_INT32
        }
      }
      attr {
        key: "value"
        value {
          tensor {
            dtype: DT_INT32
            tensor_shape {
              dim {
                size: 1
              }
            }
            int_val: 0
          }
        }
      }
    }
    node {
      name: "dnn/input_from_feature_columns/input_layer/nyse_m1/strided_slice/stack_1"
      op: "Const"
      attr {
        key: "_output_shapes"
        value {
          list {
            shape {
              dim {
                size: 1
              }
            }
          }
        }
      }
      attr {
        key: "dtype"
        value {
          type: DT_INT32
        }
      }
      attr {
        key: "value"
        value {
          tensor {
            dtype: DT_INT32
            tensor_shape {
              dim {
                size: 1
              }
            }
            int_val: 1
          }
        }
      }
    }
    node {
      name: "dnn/input_from_feature_columns/input_layer/nyse_m1/strided_slice/stack_2"
      op: "Const"
      attr {
        key: "_output_shapes"
        value {
          list {
            shape {
              dim {
                size: 1
              }
            }
          }
        }
      }
      attr {
        key: "dtype"
        value {
          type: DT_INT32
        }
      }
      attr {
        key: "value"
        value {
          tensor {
            dtype: DT_INT32
            tensor_shape {
              dim {
                size: 1
              }
            }
            int_val: 1
          }
        }
      }
    }
    node {
      name: "dnn/input_from_feature_columns/input_layer/nyse_m1/strided_slice"
      op: "StridedSlice"
      input: "dnn/input_from_feature_columns/input_layer/nyse_m1/Shape"
      input: "dnn/input_from_feature_columns/input_layer/nyse_m1/strided_slice/stack"
      input: "dnn/input_from_feature_columns/input_layer/nyse_m1/strided_slice/stack_1"
      input: "dnn/input_from_feature_columns/input_layer/nyse_m1/strided_slice/stack_2"
      attr {
        key: "Index"
        value {
          type: DT_INT32
        }
      }
      attr {
        key: "T"
        value {
          type: DT_INT32
        }
      }
      attr {
        key: "_output_shapes"
        value {
          list {
            shape {
            }
          }
        }
      }
      attr {
        key: "begin_mask"
        value {
          i: 0
        }
      }
      attr {
        key: "ellipsis_mask"
        value {
          i: 0
        }
      }
      attr {
        key: "end_mask"
        value {
          i: 0
        }
      }
      attr {
        key: "new_axis_mask"
        value {
          i: 0
        }
      }
      attr {
        key: "shrink_axis_mask"
        value {
          i: 1
        }
      }
    }
    node {
      name: "dnn/input_from_feature_columns/input_layer/nyse_m1/Reshape/shape/1"
      op: "Const"
      attr {
        key: "_output_shapes"
        value {
          list {
            shape {
            }
          }
        }
      }
      attr {
        key: "dtype"
        value {
          type: DT_INT32
        }
      }
      attr {
        key: "value"
        value {
          tensor {
            dtype: DT_INT32
            tensor_shape {
            }
            int_val: 1
          }
        }
      }
    }
    node {
      name: "dnn/input_from_feature_columns/input_layer/nyse_m1/Reshape/shape"
      op: "Pack"
      input: "dnn/input_from_feature_columns/input_layer/nyse_m1/strided_slice"
      input: "dnn/input_from_feature_columns/input_layer/nyse_m1/Reshape/shape/1"
      attr {
        key: "N"
        value {
          i: 2
        }
      }
      attr {
        key: "T"
        value {
          type: DT_INT32
        }
      }
      attr {
        key: "_output_shapes"
        value {
          list {
            shape {
              dim {
                size: 2
              }
            }
          }
        }
      }
      attr {
        key: "axis"
        value {
          i: 0
        }
      }
    }
    node {
      name: "dnn/input_from_feature_columns/input_layer/nyse_m1/Reshape"
      op: "Reshape"
      input: "DecodeCSV:2"
      input: "dnn/input_from_feature_columns/input_layer/nyse_m1/Reshape/shape"
      attr {
        key: "T"
        value {
          type: DT_FLOAT
        }
      }
      attr {
        key: "Tshape"
        value {
          type: DT_INT32
        }
      }
      attr {
        key: "_output_shapes"
        value {
          list {
            shape {
              dim {
                size: -1
              }
              dim {
                size: 1
              }
            }
          }
        }
      }
    }
    node {
      name: "dnn/input_from_feature_columns/input_layer/nyse_m2/Shape"
      op: "Shape"
      input: "DecodeCSV:3"
      attr {
        key: "T"
        value {
          type: DT_FLOAT
        }
      }
      attr {
        key: "_output_shapes"
        value {
          list {
            shape {
              dim {
                size: 2
              }
            }
          }
        }
      }
      attr {
        key: "out_type"
        value {
          type: DT_INT32
        }
      }
    }
    node {
      name: "dnn/input_from_feature_columns/input_layer/nyse_m2/strided_slice/stack"
      op: "Const"
      attr {
        key: "_output_shapes"
        value {
          list {
            shape {
              dim {
                size: 1
              }
            }
          }
        }
      }
      attr {
        key: "dtype"
        value {
          type: DT_INT32
        }
      }
      attr {
        key: "value"
        value {
          tensor {
            dtype: DT_INT32
            tensor_shape {
              dim {
                size: 1
              }
            }
            int_val: 0
          }
        }
      }
    }
    node {
      name: "dnn/input_from_feature_columns/input_layer/nyse_m2/strided_slice/stack_1"
      op: "Const"
      attr {
        key: "_output_shapes"
        value {
          list {
            shape {
              dim {
                size: 1
              }
            }
          }
        }
      }
      attr {
        key: "dtype"
        value {
          type: DT_INT32
        }
      }
      attr {
        key: "value"
        value {
          tensor {
            dtype: DT_INT32
            tensor_shape {
              dim {
                size: 1
              }
            }
            int_val: 1
          }
        }
      }
    }
    node {
      name: "dnn/input_from_feature_columns/input_layer/nyse_m2/strided_slice/stack_2"
      op: "Const"
      attr {
        key: "_output_shapes"
        value {
          list {
            shape {
              dim {
                size: 1
              }
            }
          }
        }
      }
      attr {
        key: "dtype"
        value {
          type: DT_INT32
        }
      }
      attr {
        key: "value"
        value {
          tensor {
            dtype: DT_INT32
            tensor_shape {
              dim {
                size: 1
              }
            }
            int_val: 1
          }
        }
      }
    }
    node {
      name: "dnn/input_from_feature_columns/input_layer/nyse_m2/strided_slice"
      op: "StridedSlice"
      input: "dnn/input_from_feature_columns/input_layer/nyse_m2/Shape"
      input: "dnn/input_from_feature_columns/input_layer/nyse_m2/strided_slice/stack"
      input: "dnn/input_from_feature_columns/input_layer/nyse_m2/strided_slice/stack_1"
      input: "dnn/input_from_feature_columns/input_layer/nyse_m2/strided_slice/stack_2"
      attr {
        key: "Index"
        value {
          type: DT_INT32
        }
      }
      attr {
        key: "T"
        value {
          type: DT_INT32
        }
      }
      attr {
        key: "_output_shapes"
        value {
          list {
            shape {
            }
          }
        }
      }
      attr {
        key: "begin_mask"
        value {
          i: 0
        }
      }
      attr {
        key: "ellipsis_mask"
        value {
          i: 0
        }
      }
      attr {
        key: "end_mask"
        value {
          i: 0
        }
      }
      attr {
        key: "new_axis_mask"
        value {
          i: 0
        }
      }
      attr {
        key: "shrink_axis_mask"
        value {
          i: 1
        }
      }
    }
    node {
      name: "dnn/input_from_feature_columns/input_layer/nyse_m2/Reshape/shape/1"
      op: "Const"
      attr {
        key: "_output_shapes"
        value {
          list {
            shape {
            }
          }
        }
      }
      attr {
        key: "dtype"
        value {
          type: DT_INT32
        }
      }
      attr {
        key: "value"
        value {
          tensor {
            dtype: DT_INT32
            tensor_shape {
            }
            int_val: 1
          }
        }
      }
    }
    node {
      name: "dnn/input_from_feature_columns/input_layer/nyse_m2/Reshape/shape"
      op: "Pack"
      input: "dnn/input_from_feature_columns/input_layer/nyse_m2/strided_slice"
      input: "dnn/input_from_feature_columns/input_layer/nyse_m2/Reshape/shape/1"
      attr {
        key: "N"
        value {
          i: 2
        }
      }
      attr {
        key: "T"
        value {
          type: DT_INT32
        }
      }
      attr {
        key: "_output_shapes"
        value {
          list {
            shape {
              dim {
                size: 2
              }
            }
          }
        }
      }
      attr {
        key: "axis"
        value {
          i: 0
        }
      }
    }
    node {
      name: "dnn/input_from_feature_columns/input_layer/nyse_m2/Reshape"
      op: "Reshape"
      input: "DecodeCSV:3"
      input: "dnn/input_from_feature_columns/input_layer/nyse_m2/Reshape/shape"
      attr {
        key: "T"
        value {
          type: DT_FLOAT
        }
      }
      attr {
        key: "Tshape"
        value {
          type: DT_INT32
        }
      }
      attr {
        key: "_output_shapes"
        value {
          list {
            shape {
              dim {
                size: -1
              }
              dim {
                size: 1
              }
            }
          }
        }
      }
    }
    node {
      name: "dnn/input_from_feature_columns/input_layer/snp_m1/Shape"
      op: "Shape"
      input: "DecodeCSV"
      attr {
        key: "T"
        value {
          type: DT_FLOAT
        }
      }
      attr {
        key: "_output_shapes"
        value {
          list {
            shape {
              dim {
                size: 2
              }
            }
          }
        }
      }
      attr {
        key: "out_type"
        value {
          type: DT_INT32
        }
      }
    }
    node {
      name: "dnn/input_from_feature_columns/input_layer/snp_m1/strided_slice/stack"
      op: "Const"
      attr {
        key: "_output_shapes"
        value {
          list {
            shape {
              dim {
                size: 1
              }
            }
          }
        }
      }
      attr {
        key: "dtype"
        value {
          type: DT_INT32
        }
      }
      attr {
        key: "value"
        value {
          tensor {
            dtype: DT_INT32
            tensor_shape {
              dim {
                size: 1
              }
            }
            int_val: 0
          }
        }
      }
    }
    node {
      name: "dnn/input_from_feature_columns/input_layer/snp_m1/strided_slice/stack_1"
      op: "Const"
      attr {
        key: "_output_shapes"
        value {
          list {
            shape {
              dim {
                size: 1
              }
            }
          }
        }
      }
      attr {
        key: "dtype"
        value {
          type: DT_INT32
        }
      }
      attr {
        key: "value"
        value {
          tensor {
            dtype: DT_INT32
            tensor_shape {
              dim {
                size: 1
              }
            }
            int_val: 1
          }
        }
      }
    }
    node {
      name: "dnn/input_from_feature_columns/input_layer/snp_m1/strided_slice/stack_2"
      op: "Const"
      attr {
        key: "_output_shapes"
        value {
          list {
            shape {
              dim {
                size: 1
              }
            }
          }
        }
      }
      attr {
        key: "dtype"
        value {
          type: DT_INT32
        }
      }
      attr {
        key: "value"
        value {
          tensor {
            dtype: DT_INT32
            tensor_shape {
              dim {
                size: 1
              }
            }
            int_val: 1
          }
        }
      }
    }
    node {
      name: "dnn/input_from_feature_columns/input_layer/snp_m1/strided_slice"
      op: "StridedSlice"
      input: "dnn/input_from_feature_columns/input_layer/snp_m1/Shape"
      input: "dnn/input_from_feature_columns/input_layer/snp_m1/strided_slice/stack"
      input: "dnn/input_from_feature_columns/input_layer/snp_m1/strided_slice/stack_1"
      input: "dnn/input_from_feature_columns/input_layer/snp_m1/strided_slice/stack_2"
      attr {
        key: "Index"
        value {
          type: DT_INT32
        }
      }
      attr {
        key: "T"
        value {
          type: DT_INT32
        }
      }
      attr {
        key: "_output_shapes"
        value {
          list {
            shape {
            }
          }
        }
      }
      attr {
        key: "begin_mask"
        value {
          i: 0
        }
      }
      attr {
        key: "ellipsis_mask"
        value {
          i: 0
        }
      }
      attr {
        key: "end_mask"
        value {
          i: 0
        }
      }
      attr {
        key: "new_axis_mask"
        value {
          i: 0
        }
      }
      attr {
        key: "shrink_axis_mask"
        value {
          i: 1
        }
      }
    }
    node {
      name: "dnn/input_from_feature_columns/input_layer/snp_m1/Reshape/shape/1"
      op: "Const"
      attr {
        key: "_output_shapes"
        value {
          list {
            shape {
            }
          }
        }
      }
      attr {
        key: "dtype"
        value {
          type: DT_INT32
        }
      }
      attr {
        key: "value"
        value {
          tensor {
            dtype: DT_INT32
            tensor_shape {
            }
            int_val: 1
          }
        }
      }
    }
    node {
      name: "dnn/input_from_feature_columns/input_layer/snp_m1/Reshape/shape"
      op: "Pack"
      input: "dnn/input_from_feature_columns/input_layer/snp_m1/strided_slice"
      input: "dnn/input_from_feature_columns/input_layer/snp_m1/Reshape/shape/1"
      attr {
        key: "N"
        value {
          i: 2
        }
      }
      attr {
        key: "T"
        value {
          type: DT_INT32
        }
      }
      attr {
        key: "_output_shapes"
        value {
          list {
            shape {
              dim {
                size: 2
              }
            }
          }
        }
      }
      attr {
        key: "axis"
        value {
          i: 0
        }
      }
    }
    node {
      name: "dnn/input_from_feature_columns/input_layer/snp_m1/Reshape"
      op: "Reshape"
      input: "DecodeCSV"
      input: "dnn/input_from_feature_columns/input_layer/snp_m1/Reshape/shape"
      attr {
        key: "T"
        value {
          type: DT_FLOAT
        }
      }
      attr {
        key: "Tshape"
        value {
          type: DT_INT32
        }
      }
      attr {
        key: "_output_shapes"
        value {
          list {
            shape {
              dim {
                size: -1
              }
              dim {
                size: 1
              }
            }
          }
        }
      }
    }
    node {
      name: "dnn/input_from_feature_columns/input_layer/snp_m2/Shape"
      op: "Shape"
      input: "DecodeCSV:1"
      attr {
        key: "T"
        value {
          type: DT_FLOAT
        }
      }
      attr {
        key: "_output_shapes"
        value {
          list {
            shape {
              dim {
                size: 2
              }
            }
          }
        }
      }
      attr {
        key: "out_type"
        value {
          type: DT_INT32
        }
      }
    }
    node {
      name: "dnn/input_from_feature_columns/input_layer/snp_m2/strided_slice/stack"
      op: "Const"
      attr {
        key: "_output_shapes"
        value {
          list {
            shape {
              dim {
                size: 1
              }
            }
          }
        }
      }
      attr {
        key: "dtype"
        value {
          type: DT_INT32
        }
      }
      attr {
        key: "value"
        value {
          tensor {
            dtype: DT_INT32
            tensor_shape {
              dim {
                size: 1
              }
            }
            int_val: 0
          }
        }
      }
    }
    node {
      name: "dnn/input_from_feature_columns/input_layer/snp_m2/strided_slice/stack_1"
      op: "Const"
      attr {
        key: "_output_shapes"
        value {
          list {
            shape {
              dim {
                size: 1
              }
            }
          }
        }
      }
      attr {
        key: "dtype"
        value {
          type: DT_INT32
        }
      }
      attr {
        key: "value"
        value {
          tensor {
            dtype: DT_INT32
            tensor_shape {
              dim {
                size: 1
              }
            }
            int_val: 1
          }
        }
      }
    }
    node {
      name: "dnn/input_from_feature_columns/input_layer/snp_m2/strided_slice/stack_2"
      op: "Const"
      attr {
        key: "_output_shapes"
        value {
          list {
            shape {
              dim {
                size: 1
              }
            }
          }
        }
      }
      attr {
        key: "dtype"
        value {
          type: DT_INT32
        }
      }
      attr {
        key: "value"
        value {
          tensor {
            dtype: DT_INT32
            tensor_shape {
              dim {
                size: 1
              }
            }
            int_val: 1
          }
        }
      }
    }
    node {
      name: "dnn/input_from_feature_columns/input_layer/snp_m2/strided_slice"
      op: "StridedSlice"
      input: "dnn/input_from_feature_columns/input_layer/snp_m2/Shape"
      input: "dnn/input_from_feature_columns/input_layer/snp_m2/strided_slice/stack"
      input: "dnn/input_from_feature_columns/input_layer/snp_m2/strided_slice/stack_1"
      input: "dnn/input_from_feature_columns/input_layer/snp_m2/strided_slice/stack_2"
      attr {
        key: "Index"
        value {
          type: DT_INT32
        }
      }
      attr {
        key: "T"
        value {
          type: DT_INT32
        }
      }
      attr {
        key: "_output_shapes"
        value {
          list {
            shape {
            }
          }
        }
      }
      attr {
        key: "begin_mask"
        value {
          i: 0
        }
      }
      attr {
        key: "ellipsis_mask"
        value {
          i: 0
        }
      }
      attr {
        key: "end_mask"
        value {
          i: 0
        }
      }
      attr {
        key: "new_axis_mask"
        value {
          i: 0
        }
      }
      attr {
        key: "shrink_axis_mask"
        value {
          i: 1
        }
      }
    }
    node {
      name: "dnn/input_from_feature_columns/input_layer/snp_m2/Reshape/shape/1"
      op: "Const"
      attr {
        key: "_output_shapes"
        value {
          list {
            shape {
            }
          }
        }
      }
      attr {
        key: "dtype"
        value {
          type: DT_INT32
        }
      }
      attr {
        key: "value"
        value {
          tensor {
            dtype: DT_INT32
            tensor_shape {
            }
            int_val: 1
          }
        }
      }
    }
    node {
      name: "dnn/input_from_feature_columns/input_layer/snp_m2/Reshape/shape"
      op: "Pack"
      input: "dnn/input_from_feature_columns/input_layer/snp_m2/strided_slice"
      input: "dnn/input_from_feature_columns/input_layer/snp_m2/Reshape/shape/1"
      attr {
        key: "N"
        value {
          i: 2
        }
      }
      attr {
        key: "T"
        value {
          type: DT_INT32
        }
      }
      attr {
        key: "_output_shapes"
        value {
          list {
            shape {
              dim {
                size: 2
              }
            }
          }
        }
      }
      attr {
        key: "axis"
        value {
          i: 0
        }
      }
    }
    node {
      name: "dnn/input_from_feature_columns/input_layer/snp_m2/Reshape"
      op: "Reshape"
      input: "DecodeCSV:1"
      input: "dnn/input_from_feature_columns/input_layer/snp_m2/Reshape/shape"
      attr {
        key: "T"
        value {
          type: DT_FLOAT
        }
      }
      attr {
        key: "Tshape"
        value {
          type: DT_INT32
        }
      }
      attr {
        key: "_output_shapes"
        value {
          list {
            shape {
              dim {
                size: -1
              }
              dim {
                size: 1
              }
            }
          }
        }
      }
    }
    node {
      name: "dnn/input_from_feature_columns/input_layer/concat/axis"
      op: "Const"
      attr {
        key: "_output_shapes"
        value {
          list {
            shape {
            }
          }
        }
      }
      attr {
        key: "dtype"
        value {
          type: DT_INT32
        }
      }
      attr {
        key: "value"
        value {
          tensor {
            dtype: DT_INT32
            tensor_shape {
            }
            int_val: 1
          }
        }
      }
    }
    node {
      name: "dnn/input_from_feature_columns/input_layer/concat"
      op: "ConcatV2"
      input: "dnn/input_from_feature_columns/input_layer/aord_m0/Reshape"
      input: "dnn/input_from_feature_columns/input_layer/aord_m1/Reshape"
      input: "dnn/input_from_feature_columns/input_layer/dax_m0/Reshape"
      input: "dnn/input_from_feature_columns/input_layer/dax_m1/Reshape"
      input: "dnn/input_from_feature_columns/input_layer/djia_m1/Reshape"
      input: "dnn/input_from_feature_columns/input_layer/djia_m2/Reshape"
      input: "dnn/input_from_feature_columns/input_layer/ftse_m0/Reshape"
      input: "dnn/input_from_feature_columns/input_layer/ftse_m1/Reshape"
      input: "dnn/input_from_feature_columns/input_layer/hangseng_m0/Reshape"
      input: "dnn/input_from_feature_columns/input_layer/hangseng_m1/Reshape"
      input: "dnn/input_from_feature_columns/input_layer/nikkei_m0/Reshape"
      input: "dnn/input_from_feature_columns/input_layer/nikkei_m1/Reshape"
      input: "dnn/input_from_feature_columns/input_layer/nyse_m1/Reshape"
      input: "dnn/input_from_feature_columns/input_layer/nyse_m2/Reshape"
      input: "dnn/input_from_feature_columns/input_layer/snp_m1/Reshape"
      input: "dnn/input_from_feature_columns/input_layer/snp_m2/Reshape"
      input: "dnn/input_from_feature_columns/input_layer/concat/axis"
      attr {
        key: "N"
        value {
          i: 16
        }
      }
      attr {
        key: "T"
        value {
…
          type: DT_INT32
        }
      }
      attr {
        key: "value"
        value {
          tensor {
            dtype: DT_INT32
            tensor_shape {
            }
            int_val: 1
          }
        }
      }
    }
    node {
      name: "save_1/ShardedFilename/shard"
      op: "Const"
      device: "/device:CPU:0"
      attr {
        key: "_output_shapes"
        value {
          list {
            shape {
            }
          }
        }
      }
      attr {
        key: "dtype"
        value {
          type: DT_INT32
        }
      }
      attr {
        key: "value"
        value {
          tensor {
            dtype: DT_INT32
            tensor_shape {
            }
            int_val: 0
          }
        }
      }
    }
    node {
      name: "save_1/ShardedFilename"
      op: "ShardedFilename"
      input: "save_1/StringJoin"
      input: "save_1/ShardedFilename/shard"
      input: "save_1/num_shards"
      device: "/device:CPU:0"
      attr {
        key: "_output_shapes"
        value {
          list {
            shape {
            }
          }
        }
      }
    }
    node {
      name: "save_1/SaveV2/tensor_names"
      op: "Const"
      device: "/device:CPU:0"
      attr {
        key: "_output_shapes"
        value {
          list {
            shape {
              dim {
                size: 11
              }
            }
          }
        }
      }
      attr {
        key: "dtype"
        value {
          type: DT_STRING
        }
      }
      attr {
        key: "value"
        value {
          tensor {
            dtype: DT_STRING
            tensor_shape {
              dim {
                size: 11
              }
            }
            string_val: "dnn/hiddenlayer_0/bias"
            string_val: "dnn/hiddenlayer_0/kernel"
            string_val: "dnn/hiddenlayer_1/bias"
            string_val: "dnn/hiddenlayer_1/kernel"
            string_val: "dnn/logits/bias"
            string_val: "dnn/logits/kernel"
            string_val: "global_step"
            string_val: "linear/linear_model/bias_weights"
            string_val: "linear/linear_model/nyse_m1_bucketized/weights"
            string_val: "linear/linear_model/nyse_m1_bucketized_X_snp_m1_bucketized/weights"
            string_val: "linear/linear_model/snp_m1_bucketized/weights"
          }
        }
      }
    }
    node {
      name: "save_1/SaveV2/shape_and_slices"
      op: "Const"
      device: "/device:CPU:0"
      attr {
        key: "_output_shapes"
        value {
          list {
            shape {
              dim {
                size: 11
              }
            }
          }
        }
      }
      attr {
        key: "dtype"
        value {
          type: DT_STRING
        }
      }
      attr {
        key: "value"
        value {
          tensor {
            dtype: DT_STRING
            tensor_shape {
              dim {
                size: 11
              }
            }
            string_val: "32 0,32"
            string_val: "16 32 0,16:0,32"
            string_val: "16 0,16"
            string_val: "32 16 0,32:0,16"
            string_val: "1 0,1"
            string_val: "16 1 0,16:0,1"
            string_val: ""
            string_val: "1 0,1"
            string_val: "12 1 0,12:0,1"
            string_val: "10 1 0,10:0,1"
            string_val: "12 1 0,12:0,1"
          }
        }
      }
    }
    node {
      name: "save_1/SaveV2"
      op: "SaveV2"
      input: "save_1/ShardedFilename"
      input: "save_1/SaveV2/tensor_names"
      input: "save_1/SaveV2/shape_and_slices"
      input: "dnn/hiddenlayer_0/bias/part_0/read"
      input: "dnn/hiddenlayer_0/kernel/part_0/read"
      input: "dnn/hiddenlayer_1/bias/part_0/read"
      input: "dnn/hiddenlayer_1/kernel/part_0/read"
      input: "dnn/logits/bias/part_0/read"
      input: "dnn/logits/kernel/part_0/read"
      input: "global_step"
      input: "linear/linear_model/bias_weights/part_0/read"
      input: "linear/linear_model/nyse_m1_bucketized/weights/part_0/read"
      input: "linear/linear_model/nyse_m1_bucketized_X_snp_m1_bucketized/weights/part_0/read"
      input: "linear/linear_model/snp_m1_bucketized/weights/part_0/read"
      device: "/device:CPU:0"
      attr {
        key: "dtypes"
        value {
          list {
            type: DT_FLOAT
            type: DT_FLOAT
            type: DT_FLOAT
            type: DT_FLOAT
            type: DT_FLOAT
            type: DT_FLOAT
            type: DT_INT64
            type: DT_FLOAT
            type: DT_FLOAT
            type: DT_FLOAT
            type: DT_FLOAT
          }
        }
      }
    }
    node {
      name: "save_1/control_dependency"
      op: "Identity"
      input: "save_1/ShardedFilename"
      input: "^save_1/SaveV2"
      device: "/device:CPU:0"
      attr {
        key: "T"
        value {
          type: DT_STRING
        }
      }
      attr {
        key: "_class"
        value {
          list {
            s: "loc:@save_1/ShardedFilename"
          }
        }
      }
      attr {
        key: "_output_shapes"
        value {
          list {
            shape {
            }
          }
        }
      }
    }
    node {
      name: "save_1/MergeV2Checkpoints/checkpoint_prefixes"
      op: "Pack"
      input: "save_1/ShardedFilename"
      input: "^save_1/control_dependency"
      device: "/device:CPU:0"
      attr {
        key: "N"
        value {
          i: 1
        }
      }
      attr {
        key: "T"
        value {
          type: DT_STRING
        }
      }
      attr {
        key: "_output_shapes"
        value {
          list {
            shape {
              dim {
                size: 1
              }
            }
          }
        }
      }
      attr {
        key: "axis"
        value {
          i: 0
        }
      }
    }
    node {
      name: "save_1/MergeV2Checkpoints"
      op: "MergeV2Checkpoints"
      input: "save_1/MergeV2Checkpoints/checkpoint_prefixes"
      input: "save_1/Const"
      device: "/device:CPU:0"
      attr {
        key: "delete_old_dirs"
        value {
          b: true
        }
      }
    }
    node {
      name: "save_1/Identity"
      op: "Identity"
      input: "save_1/Const"
      input: "^save_1/control_dependency"
      input: "^save_1/MergeV2Checkpoints"
      device: "/device:CPU:0"
      attr {
        key: "T"
        value {
          type: DT_STRING
        }
      }
      attr {
        key: "_output_shapes"
        value {
          list {
            shape {
            }
          }
        }
      }
    }
    node {
      name: "save_1/RestoreV2/tensor_names"
      op: "Const"
      attr {
        key: "_output_shapes"
        value {
          list {
            shape {
              dim {
                size: 1
              }
            }
          }
        }
      }
      attr {
        key: "dtype"
        value {
          type: DT_STRING
        }
      }
      attr {
        key: "value"
        value {
          tensor {
            dtype: DT_STRING
            tensor_shape {
              dim {
                size: 1
              }
            }
            string_val: "dnn/hiddenlayer_0/bias"
          }
        }
      }
    }
    node {
      name: "save_1/RestoreV2/shape_and_slices"
      op: "Const"
      attr {
        key: "_output_shapes"
        value {
          list {
            shape {
              dim {
                size: 1
              }
            }
          }
        }
      }
      attr {
        key: "dtype"
        value {
          type: DT_STRING
        }
      }
      attr {
        key: "value"
        value {
          tensor {
            dtype: DT_STRING
            tensor_shape {
              dim {
                size: 1
              }
            }
            string_val: "32 0,32"
          }
        }
      }
    }
    node {
      name: "save_1/RestoreV2"
      op: "RestoreV2"
      input: "save_1/Const"
      input: "save_1/RestoreV2/tensor_names"
      input: "save_1/RestoreV2/shape_and_slices"
      attr {
        key: "_output_shapes"
        value {
          list {
            shape {
              dim {
                size: 32
              }
            }
          }
        }
      }
      attr {
        key: "dtypes"
        value {
          list {
            type: DT_FLOAT
          }
        }
      }
    }
    node {
      name: "save_1/Assign"
      op: "Assign"
      input: "dnn/hiddenlayer_0/bias/part_0"
      input: "save_1/RestoreV2"
      attr {
        key: "T"
        value {
          type: DT_FLOAT
        }
      }
      attr {
        key: "_class"
        value {
          list {
            s: "loc:@dnn/hiddenlayer_0/bias/part_0"
          }
        }
      }
      attr {
        key: "_output_shapes"
        value {
          list {
            shape {
              dim {
                size: 32
              }
            }
          }
        }
      }
      attr {
        key: "use_locking"
        value {
          b: true
        }
      }
      attr {
        key: "validate_shape"
        value {
          b: true
        }
      }
    }
    node {
      name: "save_1/RestoreV2_1/tensor_names"
      op: "Const"
      attr {
        key: "_output_shapes"
        value {
          list {
            shape {
              dim {
                size: 1
              }
            }
          }
        }
      }
      attr {
        key: "dtype"
        value {
          type: DT_STRING
        }
      }
      attr {
        key: "value"
        value {
          tensor {
            dtype: DT_STRING
            tensor_shape {
              dim {
                size: 1
              }
            }
            string_val: "dnn/hiddenlayer_0/kernel"
          }
        }
      }
    }
    node {
      name: "save_1/RestoreV2_1/shape_and_slices"
      op: "Const"
      attr {
        key: "_output_shapes"
        value {
          list {
            shape {
              dim {
                size: 1
              }
            }
          }
        }
      }
      attr {
        key: "dtype"
        value {
          type: DT_STRING
        }
      }
      attr {
        key: "value"
        value {
          tensor {
            dtype: DT_STRING
            tensor_shape {
              dim {
                size: 1
              }
            }
            string_val: "16 32 0,16:0,32"
          }
        }
      }
    }
    node {
      name: "save_1/RestoreV2_1"
      op: "RestoreV2"
      input: "save_1/Const"
      input: "save_1/RestoreV2_1/tensor_names"
      input: "save_1/RestoreV2_1/shape_and_slices"
      attr {
        key: "_output_shapes"
        value {
          list {
            shape {
              dim {
                size: 16
              }
              dim {
                size: 32
              }
            }
          }
        }
      }
      attr {
        key: "dtypes"
        value {
          list {
            type: DT_FLOAT
          }
        }
      }
    }
    node {
      name: "save_1/Assign_1"
      op: "Assign"
      input: "dnn/hiddenlayer_0/kernel/part_0"
      input: "save_1/RestoreV2_1"
      attr {
        key: "T"
        value {
          type: DT_FLOAT
        }
      }
      attr {
        key: "_class"
        value {
          list {
            s: "loc:@dnn/hiddenlayer_0/kernel/part_0"
          }
        }
      }
      attr {
        key: "_output_shapes"
        value {
          list {
            shape {
              dim {
                size: 16
              }
              dim {
                size: 32
              }
            }
          }
        }
      }
      attr {
        key: "use_locking"
        value {
          b: true
        }
      }
      attr {
        key: "validate_shape"
        value {
          b: true
        }
      }
    }
    node {
      name: "save_1/RestoreV2_2/tensor_names"
      op: "Const"
      attr {
        key: "_output_shapes"
        value {
          list {
            shape {
              dim {
                size: 1
              }
            }
          }
        }
      }
      attr {
        key: "dtype"
        value {
          type: DT_STRING
        }
      }
      attr {
        key: "value"
        value {
          tensor {
            dtype: DT_STRING
            tensor_shape {
              dim {
                size: 1
              }
            }
            string_val: "dnn/hiddenlayer_1/bias"
          }
        }
      }
    }
    node {
      name: "save_1/RestoreV2_2/shape_and_slices"
      op: "Const"
      attr {
        key: "_output_shapes"
        value {
          list {
            shape {
              dim {
                size: 1
              }
            }
          }
        }
      }
      attr {
        key: "dtype"
        value {
          type: DT_STRING
        }
      }
      attr {
        key: "value"
        value {
          tensor {
            dtype: DT_STRING
            tensor_shape {
              dim {
                size: 1
              }
            }
            string_val: "16 0,16"
          }
        }
      }
    }
    node {
      name: "save_1/RestoreV2_2"
      op: "RestoreV2"
      input: "save_1/Const"
      input: "save_1/RestoreV2_2/tensor_names"
      input: "save_1/RestoreV2_2/shape_and_slices"
      attr {
        key: "_output_shapes"
        value {
          list {
            shape {
              dim {
                size: 16
              }
            }
          }
        }
      }
      attr {
        key: "dtypes"
        value {
          list {
            type: DT_FLOAT
          }
        }
      }
    }
    node {
      name: "save_1/Assign_2"
      op: "Assign"
      input: "dnn/hiddenlayer_1/bias/part_0"
      input: "save_1/RestoreV2_2"
      attr {
        key: "T"
        value {
          type: DT_FLOAT
        }
      }
      attr {
        key: "_class"
        value {
          list {
            s: "loc:@dnn/hiddenlayer_1/bias/part_0"
          }
        }
      }
      attr {
        key: "_output_shapes"
        value {
          list {
            shape {
              dim {
                size: 16
              }
            }
          }
        }
      }
      attr {
        key: "use_locking"
        value {
          b: true
        }
      }
      attr {
        key: "validate_shape"
        value {
          b: true
        }
      }
    }
    node {
      name: "save_1/RestoreV2_3/tensor_names"
      op: "Const"
      attr {
        key: "_output_shapes"
        value {
          list {
            shape {
              dim {
                size: 1
              }
            }
          }
        }
      }
      attr {
        key: "dtype"
        value {
          type: DT_STRING
        }
      }
      attr {
        key: "value"
        value {
          tensor {
            dtype: DT_STRING
            tensor_shape {
              dim {
                size: 1
              }
            }
            string_val: "dnn/hiddenlayer_1/kernel"
          }
        }
      }
    }
    node {
      name: "save_1/RestoreV2_3/shape_and_slices"
      op: "Const"
      attr {
        key: "_output_shapes"
        value {
          list {
            shape {
              dim {
                size: 1
              }
            }
          }
        }
      }
      attr {
        key: "dtype"
        value {
          type: DT_STRING
        }
      }
      attr {
        key: "value"
        value {
          tensor {
            dtype: DT_STRING
            tensor_shape {
              dim {
                size: 1
              }
            }
            string_val: "32 16 0,32:0,16"
          }
        }
      }
    }
    node {
      name: "save_1/RestoreV2_3"
      op: "RestoreV2"
      input: "save_1/Const"
      input: "save_1/RestoreV2_3/tensor_names"
      input: "save_1/RestoreV2_3/shape_and_slices"
      attr {
        key: "_output_shapes"
        value {
          list {
            shape {
              dim {
                size: 32
              }
              dim {
                size: 16
              }
            }
          }
        }
      }
      attr {
        key: "dtypes"
        value {
          list {
            type: DT_FLOAT
          }
        }
      }
    }
    node {
      name: "save_1/Assign_3"
      op: "Assign"
      input: "dnn/hiddenlayer_1/kernel/part_0"
      input: "save_1/RestoreV2_3"
      attr {
        key: "T"
        value {
          type: DT_FLOAT
        }
      }
      attr {
        key: "_class"
        value {
          list {
            s: "loc:@dnn/hiddenlayer_1/kernel/part_0"
          }
        }
      }
      attr {
        key: "_output_shapes"
        value {
          list {
            shape {
              dim {
                size: 32
              }
              dim {
                size: 16
              }
            }
          }
        }
      }
      attr {
        key: "use_locking"
        value {
          b: true
        }
      }
      attr {
        key: "validate_shape"
        value {
          b: true
        }
      }
    }
    node {
      name: "save_1/RestoreV2_4/tensor_names"
      op: "Const"
      attr {
        key: "_output_shapes"
        value {
          list {
            shape {
              dim {
                size: 1
              }
            }
          }
        }
      }
      attr {
        key: "dtype"
        value {
          type: DT_STRING
        }
      }
      attr {
        key: "value"
        value {
          tensor {
            dtype: DT_STRING
            tensor_shape {
              dim {
                size: 1
              }
            }
            string_val: "dnn/logits/bias"
          }
        }
      }
    }
    node {
      name: "save_1/RestoreV2_4/shape_and_slices"
      op: "Const"
      attr {
        key: "_output_shapes"
        value {
          list {
            shape {
              dim {
                size: 1
              }
            }
          }
        }
      }
      attr {
        key: "dtype"
        value {
          type: DT_STRING
        }
      }
      attr {
        key: "value"
        value {
          tensor {
            dtype: DT_STRING
            tensor_shape {
              dim {
                size: 1
              }
            }
            string_val: "1 0,1"
          }
        }
      }
    }
    node {
      name: "save_1/RestoreV2_4"
      op: "RestoreV2"
      input: "save_1/Const"
      input: "save_1/RestoreV2_4/tensor_names"
      input: "save_1/RestoreV2_4/shape_and_slices"
      attr {
        key: "_output_shapes"
        value {
          list {
            shape {
              dim {
                size: 1
              }
            }
          }
        }
      }
      attr {
        key: "dtypes"
        value {
          list {
            type: DT_FLOAT
          }
        }
      }
    }
    node {
      name: "save_1/Assign_4"
      op: "Assign"
      input: "dnn/logits/bias/part_0"
      input: "save_1/RestoreV2_4"
      attr {
        key: "T"
        value {
          type: DT_FLOAT
        }
      }
      attr {
        key: "_class"
        value {
          list {
            s: "loc:@dnn/logits/bias/part_0"
          }
        }
      }
      attr {
        key: "_output_shapes"
        value {
          list {
            shape {
              dim {
                size: 1
              }
            }
          }
        }
      }
      attr {
        key: "use_locking"
        value {
          b: true
        }
      }
      attr {
        key: "validate_shape"
        value {
          b: true
        }
      }
    }
    node {
      name: "save_1/RestoreV2_5/tensor_names"
      op: "Const"
      attr {
        key: "_output_shapes"
        value {
          list {
            shape {
              dim {
                size: 1
              }
            }
          }
        }
      }
      attr {
        key: "dtype"
        value {
          type: DT_STRING
        }
      }
      attr {
        key: "value"
        value {
          tensor {
            dtype: DT_STRING
            tensor_shape {
              dim {
                size: 1
              }
            }
            string_val: "dnn/logits/kernel"
          }
        }
      }
    }
    node {
      name: "save_1/RestoreV2_5/shape_and_slices"
      op: "Const"
      attr {
        key: "_output_shapes"
        value {
          list {
            shape {
              dim {
                size: 1
              }
            }
          }
        }
      }
      attr {
        key: "dtype"
        value {
          type: DT_STRING
        }
      }
      attr {
        key: "value"
        value {
          tensor {
            dtype: DT_STRING
            tensor_shape {
              dim {
                size: 1
              }
            }
            string_val: "16 1 0,16:0,1"
          }
        }
      }
    }
    node {
      name: "save_1/RestoreV2_5"
      op: "RestoreV2"
      input: "save_1/Const"
      input: "save_1/RestoreV2_5/tensor_names"
      input: "save_1/RestoreV2_5/shape_and_slices"
      attr {
        key: "_output_shapes"
        value {
          list {
            shape {
              dim {
                size: 16
              }
              dim {
                size: 1
              }
            }
          }
        }
      }
      attr {
        key: "dtypes"
        value {
          list {
            type: DT_FLOAT
          }
        }
      }
    }
    node {
      name: "save_1/Assign_5"
      op: "Assign"
      input: "dnn/logits/kernel/part_0"
      input: "save_1/RestoreV2_5"
      attr {
        key: "T"
        value {
          type: DT_FLOAT
        }
      }
      attr {
        key: "_class"
        value {
          list {
            s: "loc:@dnn/logits/kernel/part_0"
          }
        }
      }
      attr {
        key: "_output_shapes"
        value {
          list {
            shape {
              dim {
                size: 16
              }
              dim {
                size: 1
              }
            }
          }
        }
      }
      attr {
        key: "use_locking"
        value {
          b: true
        }
      }
      attr {
        key: "validate_shape"
        value {
          b: true
        }
      }
    }
    node {
      name: "save_1/RestoreV2_6/tensor_names"
      op: "Const"
      attr {
        key: "_output_shapes"
        value {
          list {
            shape {
              dim {
                size: 1
              }
            }
          }
        }
      }
      attr {
        key: "dtype"
        value {
          type: DT_STRING
        }
      }
      attr {
        key: "value"
        value {
          tensor {
            dtype: DT_STRING
            tensor_shape {
              dim {
                size: 1
              }
            }
            string_val: "global_step"
          }
        }
      }
    }
    node {
      name: "save_1/RestoreV2_6/shape_and_slices"
      op: "Const"
      attr {
        key: "_output_shapes"
        value {
          list {
            shape {
              dim {
                size: 1
              }
            }
          }
        }
      }
      attr {
        key: "dtype"
        value {
          type: DT_STRING
        }
      }
      attr {
        key: "value"
        value {
          tensor {
            dtype: DT_STRING
            tensor_shape {
              dim {
                size: 1
              }
            }
            string_val: ""
          }
        }
      }
    }
    node {
      name: "save_1/RestoreV2_6"
      op: "RestoreV2"
      input: "save_1/Const"
      input: "save_1/RestoreV2_6/tensor_names"
      input: "save_1/RestoreV2_6/shape_and_slices"
      attr {
        key: "_output_shapes"
        value {
          list {
            shape {
              unknown_rank: true
            }
          }
        }
      }
      attr {
        key: "dtypes"
        value {
          list {
            type: DT_INT64
          }
        }
      }
    }
    node {
      name: "save_1/Assign_6"
      op: "Assign"
      input: "global_step"
      input: "save_1/RestoreV2_6"
      attr {
        key: "T"
        value {
          type: DT_INT64
        }
      }
      attr {
        key: "_class"
        value {
          list {
            s: "loc:@global_step"
          }
        }
      }
      attr {
        key: "_output_shapes"
        value {
          list {
            shape {
            }
          }
        }
      }
      attr {
        key: "use_locking"
        value {
          b: true
        }
      }
      attr {
        key: "validate_shape"
        value {
          b: true
        }
      }
    }
    node {
      name: "save_1/RestoreV2_7/tensor_names"
      op: "Const"
      attr {
        key: "_output_shapes"
        value {
          list {
            shape {
              dim {
                size: 1
              }
            }
          }
        }
      }
      attr {
        key: "dtype"
        value {
          type: DT_STRING
        }
      }
      attr {
        key: "value"
        value {
          tensor {
            dtype: DT_STRING
            tensor_shape {
              dim {
                size: 1
              }
            }
            string_val: "linear/linear_model/bias_weights"
          }
        }
      }
    }
    node {
      name: "save_1/RestoreV2_7/shape_and_slices"
      op: "Const"
      attr {
        key: "_output_shapes"
        value {
          list {
            shape {
              dim {
                size: 1
              }
            }
          }
        }
      }
      attr {
        key: "dtype"
        value {
          type: DT_STRING
        }
      }
      attr {
        key: "value"
        value {
          tensor {
            dtype: DT_STRING
            tensor_shape {
              dim {
                size: 1
              }
            }
            string_val: "1 0,1"
          }
        }
      }
    }
    node {
      name: "save_1/RestoreV2_7"
      op: "RestoreV2"
      input: "save_1/Const"
      input: "save_1/RestoreV2_7/tensor_names"
      input: "save_1/RestoreV2_7/shape_and_slices"
      attr {
        key: "_output_shapes"
        value {
          list {
            shape {
              dim {
                size: 1
              }
            }
          }
        }
      }
      attr {
        key: "dtypes"
        value {
          list {
            type: DT_FLOAT
          }
        }
      }
    }
    node {
      name: "save_1/Assign_7"
      op: "Assign"
      input: "linear/linear_model/bias_weights/part_0"
      input: "save_1/RestoreV2_7"
      attr {
        key: "T"
        value {
          type: DT_FLOAT
        }
      }
      attr {
        key: "_class"
        value {
          list {
            s: "loc:@linear/linear_model/bias_weights/part_0"
          }
        }
      }
      attr {
        key: "_output_shapes"
        value {
          list {
            shape {
              dim {
                size: 1
              }
            }
          }
        }
      }
      attr {
        key: "use_locking"
        value {
          b: true
        }
      }
      attr {
        key: "validate_shape"
        value {
          b: true
        }
      }
    }
    node {
      name: "save_1/RestoreV2_8/tensor_names"
      op: "Const"
      attr {
        key: "_output_shapes"
        value {
          list {
            shape {
              dim {
                size: 1
              }
            }
          }
        }
      }
      attr {
        key: "dtype"
        value {
          type: DT_STRING
        }
      }
      attr {
        key: "value"
        value {
          tensor {
            dtype: DT_STRING
            tensor_shape {
              dim {
                size: 1
              }
            }
            string_val: "linear/linear_model/nyse_m1_bucketized/weights"
          }
        }
      }
    }
    node {
      name: "save_1/RestoreV2_8/shape_and_slices"
      op: "Const"
      attr {
        key: "_output_shapes"
        value {
          list {
            shape {
              dim {
                size: 1
              }
            }
          }
        }
      }
      attr {
        key: "dtype"
        value {
          type: DT_STRING
        }
      }
      attr {
        key: "value"
        value {
          tensor {
            dtype: DT_STRING
            tensor_shape {
              dim {
                size: 1
              }
            }
            string_val: "12 1 0,12:0,1"
          }
        }
      }
    }
    node {
      name: "save_1/RestoreV2_8"
      op: "RestoreV2"
      input: "save_1/Const"
      input: "save_1/RestoreV2_8/tensor_names"
      input: "save_1/RestoreV2_8/shape_and_slices"
      attr {
        key: "_output_shapes"
        value {
          list {
            shape {
              dim {
                size: 12
              }
              dim {
                size: 1
              }
            }
          }
        }
      }
      attr {
        key: "dtypes"
        value {
          list {
            type: DT_FLOAT
          }
        }
      }
    }
    node {
      name: "save_1/Assign_8"
      op: "Assign"
      input: "linear/linear_model/nyse_m1_bucketized/weights/part_0"
      input: "save_1/RestoreV2_8"
      attr {
        key: "T"
        value {
          type: DT_FLOAT
        }
      }
      attr {
        key: "_class"
        value {
          list {
            s: "loc:@linear/linear_model/nyse_m1_bucketized/weights/part_0"
          }
        }
      }
      attr {
        key: "_output_shapes"
        value {
          list {
            shape {
              dim {
                size: 12
              }
              dim {
                size: 1
              }
            }
          }
        }
      }
      attr {
        key: "use_locking"
        value {
          b: true
        }
      }
      attr {
        key: "validate_shape"
        value {
          b: true
        }
      }
    }
    node {
      name: "save_1/RestoreV2_9/tensor_names"
      op: "Const"
      attr {
        key: "_output_shapes"
        value {
          list {
            shape {
              dim {
                size: 1
              }
            }
          }
        }
      }
      attr {
        key: "dtype"
        value {
          type: DT_STRING
        }
      }
      attr {
        key: "value"
        value {
          tensor {
            dtype: DT_STRING
            tensor_shape {
              dim {
                size: 1
              }
            }
            string_val: "linear/linear_model/nyse_m1_bucketized_X_snp_m1_bucketized/weights"
          }
        }
      }
    }
    node {
      name: "save_1/RestoreV2_9/shape_and_slices"
      op: "Const"
      attr {
        key: "_output_shapes"
        value {
          list {
            shape {
              dim {
                size: 1
              }
            }
          }
        }
      }
      attr {
        key: "dtype"
        value {
          type: DT_STRING
        }
      }
      attr {
        key: "value"
        value {
          tensor {
            dtype: DT_STRING
            tensor_shape {
              dim {
                size: 1
              }
            }
            string_val: "10 1 0,10:0,1"
          }
        }
      }
    }
    node {
      name: "save_1/RestoreV2_9"
      op: "RestoreV2"
      input: "save_1/Const"
      input: "save_1/RestoreV2_9/tensor_names"
      input: "save_1/RestoreV2_9/shape_and_slices"
      attr {
        key: "_output_shapes"
        value {
          list {
            shape {
              dim {
                size: 10
              }
              dim {
                size: 1
              }
            }
          }
        }
      }
      attr {
        key: "dtypes"
        value {
          list {
            type: DT_FLOAT
          }
        }
      }
    }
    node {
      name: "save_1/Assign_9"
      op: "Assign"
      input: "linear/linear_model/nyse_m1_bucketized_X_snp_m1_bucketized/weights/part_0"
      input: "save_1/RestoreV2_9"
      attr {
        key: "T"
        value {
          type: DT_FLOAT
        }
      }
      attr {
        key: "_class"
        value {
          list {
            s: "loc:@linear/linear_model/nyse_m1_bucketized_X_snp_m1_bucketized/weights/part_0"
          }
        }
      }
      attr {
        key: "_output_shapes"
        value {
          list {
            shape {
              dim {
                size: 10
              }
              dim {
                size: 1
              }
            }
          }
        }
      }
      attr {
        key: "use_locking"
        value {
          b: true
        }
      }
      attr {
        key: "validate_shape"
        value {
          b: true
        }
      }
    }
    node {
      name: "save_1/RestoreV2_10/tensor_names"
      op: "Const"
      attr {
        key: "_output_shapes"
        value {
          list {
            shape {
              dim {
                size: 1
              }
            }
          }
        }
      }
      attr {
        key: "dtype"
        value {
          type: DT_STRING
        }
      }
      attr {
        key: "value"
        value {
          tensor {
            dtype: DT_STRING
            tensor_shape {
              dim {
                size: 1
              }
            }
            string_val: "linear/linear_model/snp_m1_bucketized/weights"
          }
        }
      }
    }
    node {
      name: "save_1/RestoreV2_10/shape_and_slices"
      op: "Const"
      attr {
        key: "_output_shapes"
        value {
          list {
            shape {
              dim {
                size: 1
              }
            }
          }
        }
      }
      attr {
        key: "dtype"
        value {
          type: DT_STRING
        }
      }
      attr {
        key: "value"
        value {
          tensor {
            dtype: DT_STRING
            tensor_shape {
              dim {
                size: 1
              }
            }
            string_val: "12 1 0,12:0,1"
          }
        }
      }
    }
    node {
      name: "save_1/RestoreV2_10"
      op: "RestoreV2"
      input: "save_1/Const"
      input: "save_1/RestoreV2_10/tensor_names"
      input: "save_1/RestoreV2_10/shape_and_slices"
      attr {
        key: "_output_shapes"
        value {
          list {
            shape {
              dim {
                size: 12
              }
              dim {
                size: 1
              }
            }
          }
        }
      }
      attr {
        key: "dtypes"
        value {
          list {
            type: DT_FLOAT
          }
        }
      }
    }
    node {
      name: "save_1/Assign_10"
      op: "Assign"
      input: "linear/linear_model/snp_m1_bucketized/weights/part_0"
      input: "save_1/RestoreV2_10"
      attr {
        key: "T"
        value {
          type: DT_FLOAT
        }
      }
      attr {
        key: "_class"
        value {
          list {
            s: "loc:@linear/linear_model/snp_m1_bucketized/weights/part_0"
          }
        }
      }
      attr {
        key: "_output_shapes"
        value {
          list {
            shape {
              dim {
                size: 12
              }
              dim {
                size: 1
              }
            }
          }
        }
      }
      attr {
        key: "use_locking"
        value {
          b: true
        }
      }
      attr {
        key: "validate_shape"
        value {
          b: true
        }
      }
    }
    node {
      name: "save_1/restore_shard"
      op: "NoOp"
      input: "^save_1/Assign"
      input: "^save_1/Assign_1"
      input: "^save_1/Assign_2"
      input: "^save_1/Assign_3"
      input: "^save_1/Assign_4"
      input: "^save_1/Assign_5"
      input: "^save_1/Assign_6"
      input: "^save_1/Assign_7"
      input: "^save_1/Assign_8"
      input: "^save_1/Assign_9"
      input: "^save_1/Assign_10"
    }
    node {
      name: "save_1/restore_all"
      op: "NoOp"
      input: "^save_1/restore_shard"
    }
    versions {
      producer: 24
    }
  }
  saver_def {
    filename_tensor_name: "save_1/Const:0"
    save_tensor_name: "save_1/Identity:0"
    restore_op_name: "save_1/restore_all"
    max_to_keep: 5
    sharded: true
    keep_checkpoint_every_n_hours: 10000.0
    version: V2
  }
  collection_def {
    key: "global_step"
    value {
      node_list {
        value: "global_step:0"
      }
    }
  }
  collection_def {
    key: "legacy_init_op"
    value {
      node_list {
        value: "group_deps"
      }
    }
  }
  collection_def {
    key: "model_variables"
    value {
      bytes_list {
        value: "\n7linear/linear_model/nyse_m1_bucketized/weights/part_0:0\022<linear/linear_model/nyse_m1_bucketized/weights/part_0/Assign\032<linear/linear_model/nyse_m1_bucketized/weights/part_0/read:0\"<\n.linear/linear_model/nyse_m1_bucketized/weights\022\002\014\001\032\002\000\000\"\002\014\0012Ilinear/linear_model/nyse_m1_bucketized/weights/part_0/Initializer/zeros:0"
        value: "\nKlinear/linear_model/nyse_m1_bucketized_X_snp_m1_bucketized/weights/part_0:0\022Plinear/linear_model/nyse_m1_bucketized_X_snp_m1_bucketized/weights/part_0/Assign\032Plinear/linear_model/nyse_m1_bucketized_X_snp_m1_bucketized/weights/part_0/read:0\"P\nBlinear/linear_model/nyse_m1_bucketized_X_snp_m1_bucketized/weights\022\002\n\001\032\002\000\000\"\002\n\0012]linear/linear_model/nyse_m1_bucketized_X_snp_m1_bucketized/weights/part_0/Initializer/zeros:0"
        value: "\n6linear/linear_model/snp_m1_bucketized/weights/part_0:0\022;linear/linear_model/snp_m1_bucketized/weights/part_0/Assign\032;linear/linear_model/snp_m1_bucketized/weights/part_0/read:0\";\n-linear/linear_model/snp_m1_bucketized/weights\022\002\014\001\032\002\000\000\"\002\014\0012Hlinear/linear_model/snp_m1_bucketized/weights/part_0/Initializer/zeros:0"
        value: "\n)linear/linear_model/bias_weights/part_0:0\022.linear/linear_model/bias_weights/part_0/Assign\032.linear/linear_model/bias_weights/part_0/read:0\"+\n linear/linear_model/bias_weights\022\001\001\032\001\000\"\001\0012;linear/linear_model/bias_weights/part_0/Initializer/zeros:0"
      }
    }
  }
  collection_def {
    key: "summaries"
    value {
      node_list {
        value: "dnn/dnn/hiddenlayer_0/fraction_of_zero_values:0"
        value: "dnn/dnn/hiddenlayer_0/activation:0"
        value: "dnn/dnn/hiddenlayer_1/fraction_of_zero_values:0"
        value: "dnn/dnn/hiddenlayer_1/activation:0"
        value: "dnn/dnn/logits/fraction_of_zero_values:0"
        value: "dnn/dnn/logits/activation:0"
        value: "linear/linear/fraction_of_zero_values:0"
        value: "linear/linear/activation:0"
      }
    }
  }
  collection_def {
    key: "table_initializer"
    value {
      node_list {
        value: "head/predictions/class_string_lookup/table_init"
      }
    }
  }
  collection_def {
    key: "trainable_variables"
    value {
      bytes_list {
        value: "\n!dnn/hiddenlayer_0/kernel/part_0:0\022&dnn/hiddenlayer_0/kernel/part_0/Assign\032&dnn/hiddenlayer_0/kernel/part_0/read:0\"&\n\030dnn/hiddenlayer_0/kernel\022\002\020 \032\002\000\000\"\002\020 2<dnn/hiddenlayer_0/kernel/part_0/Initializer/random_uniform:0"
        value: "\n\037dnn/hiddenlayer_0/bias/part_0:0\022$dnn/hiddenlayer_0/bias/part_0/Assign\032$dnn/hiddenlayer_0/bias/part_0/read:0\"!\n\026dnn/hiddenlayer_0/bias\022\001 \032\001\000\"\001 21dnn/hiddenlayer_0/bias/part_0/Initializer/zeros:0"
        value: "\n!dnn/hiddenlayer_1/kernel/part_0:0\022&dnn/hiddenlayer_1/kernel/part_0/Assign\032&dnn/hiddenlayer_1/kernel/part_0/read:0\"&\n\030dnn/hiddenlayer_1/kernel\022\002 \020\032\002\000\000\"\002 \0202<dnn/hiddenlayer_1/kernel/part_0/Initializer/random_uniform:0"
        value: "\n\037dnn/hiddenlayer_1/bias/part_0:0\022$dnn/hiddenlayer_1/bias/part_0/Assign\032$dnn/hiddenlayer_1/bias/part_0/read:0\"!\n\026dnn/hiddenlayer_1/bias\022\001\020\032\001\000\"\001\02021dnn/hiddenlayer_1/bias/part_0/Initializer/zeros:0"
        value: "\n\032dnn/logits/kernel/part_0:0\022\037dnn/logits/kernel/part_0/Assign\032\037dnn/logits/kernel/part_0/read:0\"\037\n\021dnn/logits/kernel\022\002\020\001\032\002\000\000\"\002\020\00125dnn/logits/kernel/part_0/Initializer/random_uniform:0"
        value: "\n\030dnn/logits/bias/part_0:0\022\035dnn/logits/bias/part_0/Assign\032\035dnn/logits/bias/part_0/read:0\"\032\n\017dnn/logits/bias\022\001\001\032\001\000\"\001\0012*dnn/logits/bias/part_0/Initializer/zeros:0"
        value: "\n7linear/linear_model/nyse_m1_bucketized/weights/part_0:0\022<linear/linear_model/nyse_m1_bucketized/weights/part_0/Assign\032<linear/linear_model/nyse_m1_bucketized/weights/part_0/read:0\"<\n.linear/linear_model/nyse_m1_bucketized/weights\022\002\014\001\032\002\000\000\"\002\014\0012Ilinear/linear_model/nyse_m1_bucketized/weights/part_0/Initializer/zeros:0"
        value: "\nKlinear/linear_model/nyse_m1_bucketized_X_snp_m1_bucketized/weights/part_0:0\022Plinear/linear_model/nyse_m1_bucketized_X_snp_m1_bucketized/weights/part_0/Assign\032Plinear/linear_model/nyse_m1_bucketized_X_snp_m1_bucketized/weights/part_0/read:0\"P\nBlinear/linear_model/nyse_m1_bucketized_X_snp_m1_bucketized/weights\022\002\n\001\032\002\000\000\"\002\n\0012]linear/linear_model/nyse_m1_bucketized_X_snp_m1_bucketized/weights/part_0/Initializer/zeros:0"
        value: "\n6linear/linear_model/snp_m1_bucketized/weights/part_0:0\022;linear/linear_model/snp_m1_bucketized/weights/part_0/Assign\032;linear/linear_model/snp_m1_bucketized/weights/part_0/read:0\";\n-linear/linear_model/snp_m1_bucketized/weights\022\002\014\001\032\002\000\000\"\002\014\0012Hlinear/linear_model/snp_m1_bucketized/weights/part_0/Initializer/zeros:0"
        value: "\n)linear/linear_model/bias_weights/part_0:0\022.linear/linear_model/bias_weights/part_0/Assign\032.linear/linear_model/bias_weights/part_0/read:0\"+\n linear/linear_model/bias_weights\022\001\001\032\001\000\"\001\0012;linear/linear_model/bias_weights/part_0/Initializer/zeros:0"
      }
    }
  }
  collection_def {
    key: "variables"
    value {
      bytes_list {
        value: "\n\rglobal_step:0\022\022global_step/Assign\032\022global_step/read:02\037global_step/Initializer/zeros:0"
        value: "\n!dnn/hiddenlayer_0/kernel/part_0:0\022&dnn/hiddenlayer_0/kernel/part_0/Assign\032&dnn/hiddenlayer_0/kernel/part_0/read:0\"&\n\030dnn/hiddenlayer_0/kernel\022\002\020 \032\002\000\000\"\002\020 2<dnn/hiddenlayer_0/kernel/part_0/Initializer/random_uniform:0"
        value: "\n\037dnn/hiddenlayer_0/bias/part_0:0\022$dnn/hiddenlayer_0/bias/part_0/Assign\032$dnn/hiddenlayer_0/bias/part_0/read:0\"!\n\026dnn/hiddenlayer_0/bias\022\001 \032\001\000\"\001 21dnn/hiddenlayer_0/bias/part_0/Initializer/zeros:0"
        value: "\n!dnn/hiddenlayer_1/kernel/part_0:0\022&dnn/hiddenlayer_1/kernel/part_0/Assign\032&dnn/hiddenlayer_1/kernel/part_0/read:0\"&\n\030dnn/hiddenlayer_1/kernel\022\002 \020\032\002\000\000\"\002 \0202<dnn/hiddenlayer_1/kernel/part_0/Initializer/random_uniform:0"
        value: "\n\037dnn/hiddenlayer_1/bias/part_0:0\022$dnn/hiddenlayer_1/bias/part_0/Assign\032$dnn/hiddenlayer_1/bias/part_0/read:0\"!\n\026dnn/hiddenlayer_1/bias\022\001\020\032\001\000\"\001\02021dnn/hiddenlayer_1/bias/part_0/Initializer/zeros:0"
        value: "\n\032dnn/logits/kernel/part_0:0\022\037dnn/logits/kernel/part_0/Assign\032\037dnn/logits/kernel/part_0/read:0\"\037\n\021dnn/logits/kernel\022\002\020\001\032\002\000\000\"\002\020\00125dnn/logits/kernel/part_0/Initializer/random_uniform:0"
        value: "\n\030dnn/logits/bias/part_0:0\022\035dnn/logits/bias/part_0/Assign\032\035dnn/logits/bias/part_0/read:0\"\032\n\017dnn/logits/bias\022\001\001\032\001\000\"\001\0012*dnn/logits/bias/part_0/Initializer/zeros:0"
        value: "\n7linear/linear_model/nyse_m1_bucketized/weights/part_0:0\022<linear/linear_model/nyse_m1_bucketized/weights/part_0/Assign\032<linear/linear_model/nyse_m1_bucketized/weights/part_0/read:0\"<\n.linear/linear_model/nyse_m1_bucketized/weights\022\002\014\001\032\002\000\000\"\002\014\0012Ilinear/linear_model/nyse_m1_bucketized/weights/part_0/Initializer/zeros:0"
        value: "\nKlinear/linear_model/nyse_m1_bucketized_X_snp_m1_bucketized/weights/part_0:0\022Plinear/linear_model/nyse_m1_bucketized_X_snp_m1_bucketized/weights/part_0/Assign\032Plinear/linear_model/nyse_m1_bucketized_X_snp_m1_bucketized/weights/part_0/read:0\"P\nBlinear/linear_model/nyse_m1_bucketized_X_snp_m1_bucketized/weights\022\002\n\001\032\002\000\000\"\002\n\0012]linear/linear_model/nyse_m1_bucketized_X_snp_m1_bucketized/weights/part_0/Initializer/zeros:0"
        value: "\n6linear/linear_model/snp_m1_bucketized/weights/part_0:0\022;linear/linear_model/snp_m1_bucketized/weights/part_0/Assign\032;linear/linear_model/snp_m1_bucketized/weights/part_0/read:0\";\n-linear/linear_model/snp_m1_bucketized/weights\022\002\014\001\032\002\000\000\"\002\014\0012Hlinear/linear_model/snp_m1_bucketized/weights/part_0/Initializer/zeros:0"
        value: "\n)linear/linear_model/bias_weights/part_0:0\022.linear/linear_model/bias_weights/part_0/Assign\032.linear/linear_model/bias_weights/part_0/read:0\"+\n linear/linear_model/bias_weights\022\001\001\032\001\000\"\001\0012;linear/linear_model/bias_weights/part_0/Initializer/zeros:0"
      }
    }
  }
  signature_def {
    key: "classification"
    value {
      inputs {
        key: "inputs"
        value {
          name: "csv_rows:0"
          dtype: DT_STRING
          tensor_shape {
            dim {
              size: -1
            }
          }
        }
      }
      outputs {
        key: "classes"
        value {
          name: "head/Tile:0"
          dtype: DT_STRING
          tensor_shape {
            dim {
              size: -1
            }
            dim {
              size: 2
            }
          }
        }
      }
      outputs {
        key: "scores"
        value {
          name: "head/predictions/probabilities:0"
          dtype: DT_FLOAT
          tensor_shape {
            dim {
              size: -1
            }
            dim {
              size: 2
            }
          }
        }
      }
      method_name: "tensorflow/serving/classify"
    }
  }
  signature_def {
    key: "predict"
    value {
      inputs {
        key: "csv_rows"
        value {
          name: "csv_rows:0"
          dtype: DT_STRING
          tensor_shape {
            dim {
              size: -1
            }
          }
        }
      }
      outputs {
        key: "class_ids"
        value {
          name: "head/predictions/ExpandDims:0"
          dtype: DT_INT64
          tensor_shape {
            dim {
              size: -1
            }
            dim {
              size: 1
            }
          }
        }
      }
      outputs {
        key: "classes"
        value {
          name: "head/predictions/class_string_lookup_Lookup:0"
          dtype: DT_STRING
          tensor_shape {
            dim {
              size: -1
            }
            dim {
              size: 1
            }
          }
        }
      }
      outputs {
        key: "logistic"
        value {
          name: "head/predictions/logistic:0"
          dtype: DT_FLOAT
          tensor_shape {
            dim {
              size: -1
            }
            dim {
              size: 1
            }
          }
        }
      }
      outputs {
        key: "logits"
        value {
          name: "add:0"
          dtype: DT_FLOAT
          tensor_shape {
            dim {
              size: -1
            }
            dim {
              size: 1
            }
          }
        }
      }
      outputs {
        key: "probabilities"
        value {
          name: "head/predictions/probabilities:0"
          dtype: DT_FLOAT
          tensor_shape {
            dim {
              size: -1
            }
            dim {
              size: 2
            }
          }
        }
      }
      method_name: "tensorflow/serving/predict"
    }
  }
  signature_def {
    key: "regression"
    value {
      inputs {
        key: "inputs"
        value {
          name: "csv_rows:0"
          dtype: DT_STRING
          tensor_shape {
            dim {
              size: -1
            }
          }
        }
      }
      outputs {
        key: "outputs"
        value {
          name: "head/predictions/logistic:0"
          dtype: DT_FLOAT
          tensor_shape {
            dim {
              size: -1
            }
            dim {
              size: 1
            }
          }
        }
      }
      method_name: "tensorflow/serving/regress"
    }
  }
  signature_def {
    key: "serving_default"
    value {
      inputs {
        key: "inputs"
        value {
          name: "csv_rows:0"
          dtype: DT_STRING
          tensor_shape {
            dim {
              size: -1
            }
          }
        }
      }
      outputs {
        key: "classes"
        value {
          name: "head/Tile:0"
          dtype: DT_STRING
          tensor_shape {
            dim {
              size: -1
            }
            dim {
              size: 2
            }
          }
        }
      }
      outputs {
        key: "scores"
        value {
          name: "head/predictions/probabilities:0"
          dtype: DT_FLOAT
          tensor_shape {
            dim {
              size: -1
            }
            dim {
              size: 2
            }
          }
        }
      }
      method_name: "tensorflow/serving/classify"
    }
  }
}
